models/ppo_complex_model.pth (torch, 682035 bytes, 11 tensors)

obs_mean f4 [140]
00000000: cdcc 4c3d cdcc 4c3d cdcc 4c3d cdcc 4c3d
00000010: cdcc 4c3d cdcc 4c3d cdcc 4c3d cdcc 4c3d
00000020: cdcc 4c3d cdcc 4c3d cdcc 4c3d cdcc 4c3d
00000030: cdcc 4c3d cdcc 4c3d cdcc 4c3d cdcc 4c3d
00000040: cdcc 4c3d cdcc 4c3d cdcc 4c3d cdcc 4c3d
00000050: cdcc 4c3d cdcc 4c3d cdcc 4c3d cdcc 4c3d
00000060: cdcc 4c3d cdcc 4c3d cdcc 4c3d cdcc 4c3d
00000070: cdcc 4c3d cdcc 4c3d cdcc 4c3d cdcc 4c3d
00000080: cdcc 4c3d cdcc 4c3d cdcc 4c3d cdcc 4c3d
00000090: cdcc 4c3d cdcc 4c3d cdcc 4c3d cdcc 4c3d
000000a0: cdcc 4c3d cdcc 4c3d cdcc 4c3d cdcc 4c3d
000000b0: cdcc 4c3d cdcc 4c3d cdcc 4c3d cdcc 4c3d
000000c0: cdcc 4c3d cdcc 4c3d cdcc 4c3d cdcc 4c3d
000000d0: cdcc 4c3d cdcc 4c3d cdcc 4c3d cdcc 4c3d
000000e0: cdcc 4c3d cdcc 4c3d cdcc 4c3d cdcc 4c3d
000000f0: cdcc 4c3d cdcc 4c3d cdcc 4c3d cdcc 4c3d
00000100: cdcc 4c3d cdcc 4c3d cdcc 4c3d cdcc 4c3d
00000110: cdcc 4c3d cdcc 4c3d cdcc 4c3d cdcc 4c3d
00000120: cdcc 4c3d cdcc 4c3d cdcc 4c3d cdcc 4c3d
00000130: cdcc 4c3d cdcc 4c3d cdcc 4c3d cdcc 4c3d
00000140: cdcc 4c3d cdcc 4c3d cdcc 4c3d cdcc 4c3d
00000150: cdcc 4c3d cdcc 4c3d cdcc 4c3d cdcc 4c3d
00000160: cdcc 4c3d cdcc 4c3d cdcc 4c3d cdcc 4c3d
00000170: cdcc 4c3d cdcc 4c3d cdcc 4c3d cdcc 4c3d
00000180: cdcc 4c3d cdcc 4c3d cdcc 4c3d cdcc 4c3d
00000190: 0000 6144 0000 6144 0000 6144 0000 6144
000001a0: 0000 6144 0000 6144 0000 6144 0000 6144
000001b0: 0000 6144 0000 6144 0000 6144 0000 6144
000001c0: 0000 6144 0000 6144 0000 6144 0000 6144
000001d0: 0000 6144 0000 6144 0000 6144 0000 6144
000001e0: 0000 6144 0000 6144 0000 6144 0000 6144
000001f0: 0000 6144 0000 6144 0000 6144 0000 6144
00000200: 0000 6144 0000 6144 0000 6144 0000 6144
00000210: 0000 6144 0000 6144 0000 6144 0000 6144
00000220: 0000 6144 0000 6144 0000 6144 0000 6144
0.05 0.05 0.05 0.05 0.05 0.05 0.05 0.05
0.05 0.05 0.05 0.05 0.05 0.05 0.05 0.05
0.05 0.05 0.05 0.05 0.05 0.05 0.05 0.05
0.05 0.05 0.05 0.05 0.05 0.05 0.05 0.05
0.05 0.05 0.05 0.05 0.05 0.05 0.05 0.05
0.05 0.05 0.05 0.05 0.05 0.05 0.05 0.05
0.05 0.05 0.05 0.05 0.05 0.05 0.05 0.05
0.05 0.05 0.05 0.05 0.05 0.05 0.05 0.05
0.05 0.05 0.05 0.05 0.05 0.05 0.05 0.05
0.05 0.05 0.05 0.05 0.05 0.05 0.05 0.05
0.05 0.05 0.05 0.05 0.05 0.05 0.05 0.05
0.05 0.05 0.05 0.05 0.05 0.05 0.05 0.05
0.05 0.05 0.05 0.05 900.0 900.0 900.0 900.0
900.0 900.0 900.0 900.0 900.0 900.0 900.0 900.0
900.0 900.0 900.0 900.0 900.0 900.0 900.0 900.0
900.0 900.0 900.0 900.0 900.0 900.0 900.0 900.0
900.0 900.0 900.0 900.0 900.0 900.0 900.0 900.0
900.0 900.0 900.0 900.0

obs_std f4 [140]
00000000: cdcc cc3d cdcc cc3d cdcc cc3d cdcc cc3d
00000010: cdcc cc3d cdcc cc3d cdcc cc3d cdcc cc3d
00000020: cdcc cc3d cdcc cc3d cdcc cc3d cdcc cc3d
00000030: cdcc cc3d cdcc cc3d cdcc cc3d cdcc cc3d
00000040: cdcc cc3d cdcc cc3d cdcc cc3d cdcc cc3d
00000050: cdcc cc3d cdcc cc3d cdcc cc3d cdcc cc3d
00000060: cdcc cc3d cdcc cc3d cdcc cc3d cdcc cc3d
00000070: cdcc cc3d cdcc cc3d cdcc cc3d cdcc cc3d
00000080: cdcc cc3d cdcc cc3d cdcc cc3d cdcc cc3d
00000090: cdcc cc3d cdcc cc3d cdcc cc3d cdcc cc3d
000000a0: cdcc cc3d cdcc cc3d cdcc cc3d cdcc cc3d
000000b0: cdcc cc3d cdcc cc3d cdcc cc3d cdcc cc3d
000000c0: cdcc cc3d cdcc cc3d cdcc cc3d cdcc cc3d
000000d0: cdcc cc3d cdcc cc3d cdcc cc3d cdcc cc3d
000000e0: cdcc cc3d cdcc cc3d cdcc cc3d cdcc cc3d
000000f0: cdcc cc3d cdcc cc3d cdcc cc3d cdcc cc3d
00000100: cdcc cc3d cdcc cc3d cdcc cc3d cdcc cc3d
00000110: cdcc cc3d cdcc cc3d cdcc cc3d cdcc cc3d
00000120: cdcc cc3d cdcc cc3d cdcc cc3d cdcc cc3d
00000130: cdcc cc3d cdcc cc3d cdcc cc3d cdcc cc3d
00000140: cdcc cc3d cdcc cc3d cdcc cc3d cdcc cc3d
00000150: cdcc cc3d cdcc cc3d cdcc cc3d cdcc cc3d
00000160: cdcc cc3d cdcc cc3d cdcc cc3d cdcc cc3d
00000170: cdcc cc3d cdcc cc3d cdcc cc3d cdcc cc3d
00000180: cdcc cc3d cdcc cc3d cdcc cc3d cdcc cc3d
00000190: 0000 4843 0000 4843 0000 4843 0000 4843
000001a0: 0000 4843 0000 4843 0000 4843 0000 4843
000001b0: 0000 4843 0000 4843 0000 4843 0000 4843
000001c0: 0000 4843 0000 4843 0000 4843 0000 4843
000001d0: 0000 4843 0000 4843 0000 4843 0000 4843
000001e0: 0000 4843 0000 4843 0000 4843 0000 4843
000001f0: 0000 4843 0000 4843 0000 4843 0000 4843
00000200: 0000 4843 0000 4843 0000 4843 0000 4843
00000210: 0000 4843 0000 4843 0000 4843 0000 4843
00000220: 0000 4843 0000 4843 0000 4843 0000 4843
0.1 0.1 0.1 0.1 0.1 0.1 0.1 0.1
0.1 0.1 0.1 0.1 0.1 0.1 0.1 0.1
0.1 0.1 0.1 0.1 0.1 0.1 0.1 0.1
0.1 0.1 0.1 0.1 0.1 0.1 0.1 0.1
0.1 0.1 0.1 0.1 0.1 0.1 0.1 0.1
0.1 0.1 0.1 0.1 0.1 0.1 0.1 0.1
0.1 0.1 0.1 0.1 0.1 0.1 0.1 0.1
0.1 0.1 0.1 0.1 0.1 0.1 0.1 0.1
0.1 0.1 0.1 0.1 0.1 0.1 0.1 0.1
0.1 0.1 0.1 0.1 0.1 0.1 0.1 0.1
0.1 0.1 0.1 0.1 0.1 0.1 0.1 0.1
0.1 0.1 0.1 0.1 0.1 0.1 0.1 0.1
0.1 0.1 0.1 0.1 200.0 200.0 200.0 200.0
200.0 200.0 200.0 200.0 200.0 200.0 200.0 200.0
200.0 200.0 200.0 200.0 200.0 200.0 200.0 200.0
200.0 200.0 200.0 200.0 200.0 200.0 200.0 200.0
200.0 200.0 200.0 200.0 200.0 200.0 200.0 200.0
200.0 200.0 200.0 200.0

weight f4 [256, 140]
00000000: 87f2 613e 02ba 6d3d bb9c 21bd 7cdf a6bd
00000010: 9be6 4bbd 9fe9 843b aa2a cbbd 0ba5 34be
00000020: d78e 033d a7b8 c13d 3aad 1ebe a7b4 503c
00000030: 822b 7e3c 9540 203c 0f6f 143e 843b 883d
00000040: 74df c2bd e7d5 b93c eded 263d 34da ac3a
00000050: 96f9 8a3c c5a2 e1bd d12a d9bd 3eb2 ebbd
00000060: a260 c43b 240e 9bbc a7f1 be3d 687d a1bd
00000070: ab3c 983d e192 70bd 53c6 af3d f8aa 83bd
00000080: c592 bc3b 9d23 a03d e759 373e fd74 033e
00000090: 013e bf3d e91a 89bd ea22 98bd 3e08 cc3c
000000a0: 1d50 c1bd bd59 ff3d 425b c73c f484 8ebd
000000b0: 7325 c3bd 281b cd3d ae22 2ebd 1b5b 253d
000000c0: 7122 7ebd 6a66 ab3c 7cd7 063d ee96 c1bd
000000d0: 8ec8 bc3d c6da a23c c4bf 7fbc d030 a03b
000000e0: 6404 13be 4d5e 8cbd b1b3 7a3c dc9c c53d
000000f0: 060f b0bd 26d6 2abe 8774 963d 6de6 f83c
00000100: 6095 3ebd e015 afbc ada0 cb3c 991f 71bc
00000110: 6d1b 983d ddc3 f13d 6f0b 16bb 8d2f ffbd
00000120: 6b01 0cbd f170 623d bdf6 153e 1418 9e3c
00000130: 7ec5 1ebd 3aa0 08bc 187a b13c 9106 373c
00000140: 43ba 2d3e 1741 da3c c0ca ac3d 258c 6f3e
00000150: 6dd0 9a3d fe96 af3d d279 5ebc 8ede 2e3e
00000160: 4fe1 eabb 12b6 e33d b93b 0d3a ccf7 d23d
00000170: 1407 933d 22f6 163e 76b6 62bc 86bf 38bd
00000180: 739b b73d e61f 7b3d 0083 243e 7d65 acbc
00000190: 978b 453e 7b8b 8d3d 659a 4c3e 48a6 d33d
000001a0: 9a8e dcbd 7670 02bc 2729 eabd ab7e 34bc
000001b0: 049b 153c a122 ecbd ac95 8b3d a20b b83c
000001c0: 893d 953d 4d83 f6bc ba49 eb3d 0a16 423d
000001d0: 0616 013b 1960 a63d 2ad7 fd3b bdcd 54be
000001e0: 5c45 383e ef4a ee3d d972 b1bc ef10 55bd
000001f0: 9406 a43d 25c2 053e b312 193e 04de 91bd
00000200: 20ab 68bd 4443 c33d 94ce 343d f07d c9bd
00000210: 7d53 cdbc a19a d03b f39e 43bb 99bf ebbd
00000220: 7f45 523d 81ed 623c 9117 4cbb 8f8c 3dbc
00000230: f3e7 bdbd f093 9c3d d9ff 433e 5bf0 193e
00000240: b7dd 293c 40b0 82bd 0053 04be 71a2 efbd
00000250: b627 b43d e5d7 0a3d 4b9f 0b3e e190 9e3d
00000260: 0f2d ff3d cdbc 2e3d 3faf efbd 0187 cbbd
00000270: 4007 3c3d 2639 6c3b a3bf d43c 234e ecbd
00000280: b7ae c93c 9a4a bebd d350 aa3d beed 2a3d
00000290: fa03 acbd 95d3 383c 0bd0 2ebe 2a24 f8bd
000002a0: c9a7 debb 839c 8a3d 024e c2bd 9eb2 e4bc
000002b0: 9d4c c3bc ce56 85bd 781b 2e3d ef3f 263d
000002c0: fcb8 03be 7de1 4b3d e0de 803c f6a5 95bd
000002d0: 17f7 c3ba 1ddb d93d a7f0 5dbe d8a6 9a3c
000002e0: 49f9 e13c b48f c73d 2036 8b3d 2e2f 82bc
000002f0: 926a f0bb 6e22 cd3d 00ec 583d 06f0 933d
00000300: 008e 853d 595f 9d3d 96b5 88bd c05b ee3b
00000310: 8881 52bd f2e1 fabd b1a4 843d 239c cb3d
00000320: ad3a 1fbd 494f 4bbd 7269 7a3e 1175 493d
00000330: f420 90bd 5c24 cc3d ac9f 20bc 020d a93d
00000340: a3fd c0bc cb54 3abd 4c18 e93d 3264 8ebc
00000350: efa2 163e 6a58 7c3d b299 ab3c 9cb8 f8bb
00000360: 2548 3a3d edbd a4bc aaab b7bd 5d06 50ba
00000370: 727b a6bd ba43 a5bd 5951 6f3d 58fc c33c
00000380: 32ec 853d a558 c63c eb51 0b3e b6ca ee3b
00000390: 5164 47bd 57fe 033d 1c03 463d c567 dc3d
000003a0: 2cdd 9d3d caaf 16be dfc0 f7bc fbcf aebd
000003b0: c937 f5bd 5dba 71bb b814 4abd 6f37 ecbd
000003c0: 6cf9 dcbd 8249 50bd 9d48 cebd be6f d33c
000003d0: 2569 e1bd 2596 eebd c8b9 f83c 87e9 f7bd
000003e0: 93ba cb3d a422 e5bc f481 8fbd 7eb6 b8bd
000003f0: 8f02 f6bd 27ca 24bd 547b 22be 1775 98bd
0.22065173 0.05803872 -0.03945611 -0.08148095 -0.04978047 0.00405617 -0.09920247 -0.17641084
0.032118645 0.09459048 -0.15495768 0.012738383 0.015513303 0.009781023 0.1449549 0.06651977
-0.095152766 0.022685004 0.040754247 0.0013187588 0.016964715 -0.11017374 -0.1060387 -0.115086064
0.005992965 -0.018927641 0.09323435 -0.078852475 0.074334465 -0.058733825 0.08582749 -0.06429094
0.005754801 0.07819293 0.17905389 0.12837596 0.09337998 -0.06694586 -0.07428534 0.024906274
-0.094391085 0.12468288 0.024335507 -0.069589525 -0.09528627 0.10014945 -0.042513542 0.040370088
-0.062044565 0.020922858 0.032920346 -0.09452616 0.0921794 0.01987971 -0.015609685 0.0048886314
-0.14357144 -0.06853924 0.015301631 0.09649059 -0.085966155 -0.16683254 0.073464446 0.030383313
-0.046529174 -0.021372736 0.02485689 -0.014717006 0.07427106 0.11804936 -0.0022894999 -0.124602415
-0.03418104 0.05528349 0.14644904 0.01929859 -0.038762562 -0.008338982 0.021664664 0.011170999
0.16965584 0.026642365 0.08437109 0.23393305 0.07559285 0.08573721 -0.013578849 0.17077085
-0.007167972 0.111187115 0.00053876225 0.1030117 0.071790844 0.1474233 -0.013837447 -0.045104526
0.089651965 0.061309718 0.16065598 -0.021044487 0.1929153 0.069113694 0.19980772 0.1033445
-0.107693866 -0.007961383 -0.114336304 -0.011016528 0.009131197 -0.115300424 0.06815657 0.022466484
0.072871275 -0.030091906 0.114886716 0.0473843 0.0019696965 0.08123798 0.007746597 -0.20781608
0.17995209 0.11635386 -0.021661209 -0.052018102 0.08009067 0.13062342 0.1494854 -0.07122424
-0.056803823 0.09534314 0.04414232 -0.09838474 -0.025064224 0.0063660895 -0.002984938 -0.11511154
0.051335808 0.013850571 -0.0031141976 -0.011569156 -0.092727564 0.07645404 0.19140567 0.15033095
0.010367802 -0.06381273 -0.12922287 -0.11700905 0.08796637 0.0338973 0.13634984 0.07742477
0.12459766 0.042660523 -0.117033474 -0.09937859 0.04590535 0.0036044805 0.025970286 -0.11538341
0.024619443 -0.09291573 0.08316197 0.041730635 -0.08399196 0.011280914 -0.1707155 -0.12116273
-0.006794904 0.067681335 -0.09487535 -0.027917203 -0.023840243 -0.06510697 0.042506665 0.040588316
-0.12863535 0.04977559 0.015731275 -0.07307045 -0.0014950958 0.10637496 -0.21673833 0.018878385
0.027584689 0.09744206 0.06797433 -0.015891638 -0.007336923 0.100163326 0.052959442 0.07223515
0.06521225 0.07684202 -0.0667526 0.007274121 -0.051393062 -0.12250127 0.06476725 0.0994189
-0.038874317 -0.04963616 0.24454287 0.04918391 -0.07037535 0.099678725 -0.009803694 0.08254434
-0.023558443 -0.04549102 0.113815874 -0.017381761 0.14710592 0.061607756 0.020947311 -0.0075903665
0.04547896 -0.020110095 -0.08968289 -0.00079355185 -0.08129014 -0.080695584 0.05842719 0.023924038
0.06539191 0.02421219 0.13605468 0.0072873486 -0.048679654 0.03222498 0.04834281 0.1076198
0.07708201 -0.14715496 -0.030243335 -0.08535763 -0.11973531 -0.0036884763 -0.049336165 -0.115340106
-0.10789761 -0.050851353 -0.10072444 0.025810119 -0.11006383 -0.116497315 0.030362025 -0.12105089
0.099476956 -0.02797062 -0.070072085 -0.090191826 -0.12012207 -0.04023185 -0.15867358 -0.07444208

bias f4 [256]
00000000: 5068 fa3b edb5 513c 0000 0000 9534 503c
00000010: 0000 0000 58d6 17bc 0000 0000 0000 0000
00000020: 9e7c 833c 0000 0000 d230 8cbb d649 82ba
00000030: d74b 0bbb 704e 613b 0000 0000 ea83 323c
00000040: 78bf 1e3c 0000 0000 1a9f 78ba 0000 0000
00000050: 0000 0000 9c32 f23b 2a28 c13b 80c7 0f3c
00000060: 0000 0000 f226 58bb 5d4b b53b e328 593c
00000070: 0000 0000 0000 0000 91cd 3e3c 4c4c 313c
00000080: 742e 533c 964d 733b 4428 2a3c c07a bcbb
00000090: 9c1e 513c 0000 0000 cf9d 9e3b ca0d 0dba
000000a0: 9bcf 6a3c ee5b 2abc c979 b73b 0000 0000
000000b0: e6a9 5b3c 0e1b c43a 0000 0000 0000 0000
000000c0: bf0f a8bb 1ced 733c 0000 0000 0000 0000
000000d0: edbb 3c3c bc58 a03a 0000 0000 cb9f 5ebc
000000e0: 3ee0 d13b 3d76 883a 32e8 4d3b 0000 0000
000000f0: 0000 0000 0000 0000 f5b2 bbba f47f ca3b
00000100: 0000 0000 afbb 27bc 4f2c 383c 0000 0000
00000110: 0000 0000 644d 3e3c b850 b0bb ba51 6abb
00000120: 369c 5e3b fc9b 3c3c 970f 73bb 661a 27bb
00000130: fbca 4d3c 0000 0000 e5b0 58bb 0000 0000
00000140: 8988 393c 0000 0000 0000 0000 fc6d 0d3c
00000150: f41f c93b 0000 0000 e74d 823b 0000 0000
00000160: 0000 0000 74e8 5d3c d5b5 adb9 526c db3a
00000170: 0a30 673c 0000 0000 0000 0000 0000 0000
00000180: 0000 0000 f7e9 d1ba 5690 c33b 1f03 9ebb
00000190: 47e6 a3b9 086d e33a ba3d 04b9 3922 5b3c
000001a0: 7f1c 653b eea4 443b 0000 0000 0000 0000
000001b0: 9c65 a8bb 0000 0000 0000 0000 0000 0000
000001c0: 3065 523c 0000 0000 81c1 b13b 68d3 51ba
000001d0: b46c 87bb 0254 2d3c 075d d23b 2115 353c
000001e0: 0000 0000 450d a23b 02c7 c93a d933 7c3a
000001f0: 2a2b 233c 0000 0000 d730 093c 63d9 033c
00000200: 47f5 3bbb 3685 a7bc 0000 0000 bb17 abb7
00000210: 0ed5 ce3a 2d1e 2f3c 0a8d 383c cba2 0e3c
00000220: fa91 c4bb 0000 0000 0000 0000 0000 0000
00000230: 0000 0000 bcce f3ba 3301 403c 81e7 bfbb
00000240: 3a97 91bb 3e50 273c b9f7 dcb9 7b1d 0b3c
00000250: 47ff a4bb 0dad cebb fb78 eabb 60fb 89bb
00000260: 0000 0000 11c7 103a 27cc 1b3b 0000 0000
00000270: 40e1 ce3b 0000 0000 0000 0000 0c0a eeba
00000280: 0000 0000 7103 7d3b f39c 803b 52f6 5aba
00000290: ec9d 0eba 5e83 fb3b e56b 9b3b b800 653c
000002a0: 0000 0000 2925 283b e63d 663c 0000 0000
000002b0: 9373 25bc 0000 0000 2cff 503c bcf7 86b9
000002c0: 87e4 0d3c c51e e4bb 2bbd 94bb 0000 0000
000002d0: fec8 1b3b 0000 0000 0000 0000 0000 0000
000002e0: 5852 833b 0000 0000 0000 0000 0000 0000
000002f0: 0000 0000 0000 0000 e9fd 703a 8e46 b33b
00000300: 0000 0000 0000 0000 19f0 02bc 9240 98bb
00000310: 3e12 8f39 0000 0000 0ea9 28bc 0000 0000
00000320: 787b 263c 0000 0000 8a1f 413c 0000 0000
00000330: 26ab f6ba 0000 0000 0000 0000 569b 77bc
00000340: 0000 0000 c20b 483c 29f5 393c 9e80 c2bb
00000350: ec19 c1bb 855c 36bc 4625 ecba 0000 0000
00000360: e1d5 cbbb 9bdc 543c 0000 0000 b5ee d33b
00000370: d651 c43b 0000 0000 3b1d 263c 16a4 363b
00000380: a784 d8bb 5432 0c3c 7dfc 273c e7c9 0f3b
00000390: fd23 423c 604c db3b 0000 0000 0000 0000
000003a0: 01c4 173c e834 373c 344d 033c 0000 0000
000003b0: 0000 0000 3bb8 d33a cd9d 323c 0b57 5bbb
000003c0: 0000 0000 8001 f23b cfd0 a33b 0000 0000
000003d0: a901 123c 0000 0000 a3c9 423c e967 373c
000003e0: c175 9bba 0000 0000 0000 0000 0000 0000
000003f0: f67c 2c3c 2d96 8ebc 0000 0000 2981 c9ba
0.0076418296 0.012799722 0.0 0.012707849 0.0 -0.009267412 0.0 0.0
0.016050633 0.0 -0.004278281 -0.0009940218 -0.002125492 0.0034379028 0.0 0.010895709
0.009689204 0.0 -0.0009484157 0.0 0.0 0.007391287 0.0058946805 0.008775592
0.0 -0.0032982198 0.0055326656 0.013254377 0.0 0.0 0.011645691 0.010821413
0.012889493 0.0037125102 0.010385577 -0.0057519376 0.0127636455 0.0 0.0048405896 -0.0005380778
0.014331724 -0.010397894 0.0055992347 0.0 0.013407206 0.0014961676 0.0 0.0
-0.00512883 0.014888074 0.0 0.0 0.011519414 0.0012233476 0.0 -0.013587902
0.0064049056 0.0010411214 0.0031418917 0.0 0.0 0.0 -0.0014320301 0.006179804
0.0 -0.010237618 0.011241033 0.0 0.0 0.011615131 -0.005380716 -0.003575428
0.003396762 0.011511799 -0.003708815 -0.0025497912 0.012560601 0.0 -0.0033064422 0.0
0.011324056 0.0 0.0 0.008632179 0.0061378423 0.0 0.003976572 0.0
0.0 0.013544191 -0.00033132607 0.0016740656 0.0141105745 0.0 0.0 0.0
0.0 -0.0016015162 0.005968134 -0.0048221494 -0.00031261353 0.001735122 -0.00012611496 0.013374859
0.0034959612 0.0030005532 0.0 0.0 -0.005139066 0.0 0.0 0.0
0.012841508 0.0 0.005424679 -0.0008004219 -0.0041328315 0.010579111 0.006419781 0.011052401
0.0 0.0049454295 0.0015394392 0.0009620763 0.009959022 0.0 0.008373461 0.0080474345
-0.0028680132 -0.020449262 0.0 -2.0395839e-05 0.0015780048 0.010688347 0.011264095 0.008705805
-0.005998847 0.0 0.0 0.0 0.0 -0.001860104 0.011719036 -0.005856455
-0.0044430764 0.010212002 -0.00042146238 0.008490915 -0.0050353142 -0.0063072504 -0.0071555353 -0.0042108744
0.0 0.0005522827 0.0023772807 0.0 0.006313473 0.0 0.0 -0.0018160953
0.0 0.0038606788 0.00392496 -0.00083527446 -0.00054404023 0.0076755723 0.0047430866 0.013977222
0.0 0.0025656915 0.014052844 0.0 -0.010098356 0.0 0.01275615 -0.00025743048
0.008660442 -0.006961676 -0.004539152 0.0 0.0023770924 0.0 0.0 0.0
0.004007619 0.0 0.0 0.0 0.0 0.0 0.0009193109 0.0054710573
0.0 0.0 -0.007991814 -0.0046463693 0.00027288677 0.0 -0.010294212 0.0
0.010161273 0.0 0.011787305 0.0 -0.0018819317 0.0 0.0 -0.015112719
0.0 0.0122098345 0.011349955 -0.0059357425 -0.0058929827 -0.011130457 -0.001801648 0.0
-0.0062205647 0.01299205 0.0 0.006467665 0.005991201 0.0 0.010138805 0.00278688
-0.0066076103 0.008556921 0.010253069 0.0021940412 0.011849401 0.006692454 0.0 0.0
0.00926304 0.011182047 0.008014012 0.0 0.0 0.0016152927 0.01090188 -0.003346863
0.0 0.0073854327 0.004999257 0.0 0.008911529 0.0 0.011888894 0.011194208
-0.0011860655 0.0 0.0 0.0 0.01052784 -0.017405594 0.0 -0.0015373576

weight f4 [256, 256]
00000000: ec68 9fbd 1c0d 943d 4284 72be 540a 453e
00000010: e5c8 0b3e 3c64 65bd be14 363c 8173 ed3c
00000020: 37f4 0c3e 7fb7 06bd 6924 c0bd 6f26 1a3d
00000030: ec8e 7dbd 4e6c 27bd 67b1 4d3d 4d66 c13d
00000040: 018c 063e fba6 12bd e7bf 783d 8805 d6bc
00000050: c95f 4d3d dc89 15bd 86d2 17be 670f 15be
00000060: 11ed 01be 3958 a4bd b36c 09bc ed2c 00be
00000070: e67c d1bc f7d9 b33d 74b2 d73c d4a6 bbbd
00000080: 4932 0f3d 8f2b 973d 7ef4 89bb ad3b 32be
00000090: 42ab 10be 67f1 9fbd 15cc 16bd 95eb 273e
000000a0: 7edd 3d3d 4e59 c0bd ee67 893d 3c05 fd3d
000000b0: a6cc 333c ffbd f9bc 4d30 813d 7cd5 24bd
000000c0: 72e2 c2bd c1e6 1c3d 8303 9cbb f4f0 bebd
000000d0: 8c4a d8bd 703a 0e3d 9fff babd b7d4 febb
000000e0: 5a15 51bc 9c72 9cbd b5e5 d3bc bbca 533d
000000f0: 7855 cf3c cd74 b4bd 0b69 1f3c 682a 8ebd
00000100: 045e df3c 03ec 6ebd 73a1 bebd 981a 08bc
00000110: e6e4 b2bd fa63 1a3e 7519 c1bc 2709 1dbe
00000120: 6462 a5bc 204c 23bd e13c f53d 1973 04be
00000130: df60 0ebe b446 a2bd 7657 ce3b 24a5 0ebe
00000140: 40cc 603d 8c60 08bc 9414 df3d 2fa1 cf3d
00000150: 621a 2d3e d89b 2ebc b848 013e 2b54 bd3d
00000160: 162e 273d 7c4c 843c 7d7b ce3d a9cb 7cbb
00000170: 5eea c93c 65b0 433d a2f1 223e 2874 e73d
00000180: c939 15bd 22f9 003e 1f3f fa3d 58ab 883d
00000190: aec0 1e3e 6979 06bd e4da 203e 5bc6 f6bb
000001a0: d835 0c3e e2de 2c3c 157a cf3d cb3c 9b3c
000001b0: 5237 373e 9883 cc3c cdba 13be 4da7 f43d
000001c0: f3d1 76bd f5e1 303d cb68 833e 2b20 7d3c
000001d0: af24 d3bb 2bc8 723d 410f 503e 7fff 8c3c
000001e0: 30b5 893d dd82 11be d14d 3b3c 43a2 cd3c
000001f0: 7875 213e c592 073d 9559 a43d f8ef f0bd
00000200: 07b5 453d d49c c83d 36f4 46bd c296 bd3d
00000210: 968b 2abe 5fe9 3ebc 364f 26bd bf84 99bc
00000220: 69fa c33d d0b1 6c3d 8266 4cbe 6574 20be
00000230: 49e2 b63d 624a bd3d 9d2a 163e 45c1 cfbc
00000240: cb80 e6bd 359e 553d d439 0e3d 1734 33be
00000250: 657f a5bd f006 753d c7f4 eabc 0c50 d2bd
00000260: 72ef 0cbd ec95 e5bd e8e1 1d3e d65c c03d
00000270: 4dea 923d b8c5 063d 305c 903d 4704 98bd
00000280: 5601 d53d f56b e6bc 99c7 93bc 0118 88bd
00000290: e308 f23d c75f 863c 6485 dabd 0e9a 973d
000002a0: fa1b bcbd 35a2 3fbe c21c 4abb b399 943d
000002b0: 32e9 64bd 4551 97bd 7fb0 a8bc 141a 773c
000002c0: dc8a d4bd 6fa8 833d 161e 92bd 7730 603d
000002d0: a016 09be 0b30 443d 3856 8ebd f0cb 5c3e
000002e0: 3654 be3c 3593 183d 8fb5 c4bc d568 17bc
000002f0: a958 403c 4141 83bd 0ad2 dc3c 3381 a23d
00000300: 7b5f a23d 25b2 313c 7695 97bd 1da6 033d
00000310: e868 ef3d f858 bb3d 172f 00bb b4ec 39bc
00000320: dc44 9abd 357d 8ebb 9e6e f53d 525f 6abd
00000330: 1430 85bc c302 ce3c 0f5e 04bd 881f a2bd
00000340: 3f3a d5bc df03 1ebd 8f91 81bd eae8 50bd
00000350: 69c4 db3d ee54 c3bd 2d3a cdbc 8b27 813d
00000360: 2f8a 893d d2ab 62bd c2ab 41bd eb01 adbd
00000370: 44b5 24bd f8ab 973d 92d8 d5bb 160c cabc
00000380: b5b1 07bd 4937 523d b55a 063e cc5a 98bc
00000390: 2c0f 3fbd 6730 8c3d 67eb d7bd fa98 843d
000003a0: 16b3 36bd 9cfe d8bd 91fb aebc 3205 003e
000003b0: 5b11 223c 2637 083c a6fb 18bd d944 283c
000003c0: 7729 cc3c 19ab d93d d7e9 bdbd 5aa3 c8bd
000003d0: 499e e03c 1011 ddbc 5896 6b3d b9b4 33be
000003e0: 664c 573e eff0 6fbc e4fa 72bc 0f5c 5a3c
000003f0: 7062 303e 4fbd 333d ad18 4a3e fd91 36be
-0.07783684 0.07229063 -0.23683265 0.19242221 0.13650854 -0.056003794 0.011113344 0.02898574
0.13765036 -0.03288984 -0.09381945 0.03763431 -0.06190388 -0.04087477 0.050218012 0.094433405
0.13139345 -0.035803776 0.060729887 -0.026125684 0.050140176 -0.036508426 -0.14826402 -0.14556657
-0.1268809 -0.0802464 -0.008387732 -0.12517138 -0.025572252 0.08781808 0.02633021 -0.09162679
0.034960065 0.07381355 -0.004210054 -0.17405577 -0.1412783 -0.07809716 -0.03681572 0.16398461
0.04635381 -0.093920335 0.06709276 0.12354514 0.010974085 -0.030486105 0.06308041 -0.040242657
-0.09515847 0.038306 -0.004761161 -0.09323302 -0.10561094 0.0347237 -0.09130787 -0.0077768224
-0.012761438 -0.076390475 -0.025866369 0.05170701 0.02530931 -0.088113405 0.009729634 -0.06941682
0.02726651 -0.058330547 -0.09308138 -0.008307122 -0.08735065 0.150772 -0.02357171 -0.15335523
-0.020188518 -0.03986752 0.11974502 -0.12934531 -0.13904141 -0.07923642 0.0062970472 -0.13930184
0.054882288 -0.0083238 0.10892597 0.10138165 0.16904595 -0.010657273 0.12625396 0.092445694
0.040815435 0.016149752 0.10082147 -0.003857354 0.024647888 0.047775645 0.15912488 0.11301452
-0.03643206 0.12595037 0.12219071 0.06673306 0.15503189 -0.03283063 0.157085 -0.00753097
0.13692415 0.010551186 0.10130707 0.018949887 0.17892197 0.024965093 -0.14426728 0.119459726
-0.060258817 0.04318424 0.25665888 0.015449564 -0.006443582 0.059272926 0.20318319 0.017211674
0.06724012 -0.14210077 0.011432127 0.025101786 0.15767467 0.033098955 0.08024899 -0.117645204
0.048268344 0.097955376 -0.04857274 0.092572704 -0.1665481 -0.01165232 -0.040602885 -0.018740056
0.09569246 0.057786763 -0.19960979 -0.15669401 0.08929879 0.09242703 0.14664693 -0.025360713
-0.11255034 0.05215283 0.034723118 -0.1750034 -0.08080939 0.05982107 -0.028681172 -0.10269174
-0.03440804 -0.11210236 0.15418208 0.09392707 0.071735956 0.032903403 0.07048833 -0.07422691
0.104006454 -0.02812765 -0.018039512 -0.066452034 0.11818101 0.016403092 -0.106699735 0.074024305
-0.091850236 -0.18714221 -0.0030839895 0.07255878 -0.055886455 -0.07388548 -0.020591972 0.015081901
-0.10378048 0.064286105 -0.07134645 0.05473372 -0.13387537 0.04789738 -0.06950039 0.21562171
0.023233514 0.037249763 -0.024012355 -0.0092413025 0.011739888 -0.064089306 0.026955623 0.07934799
0.07928368 0.010845696 -0.07401554 0.03214084 0.11689931 0.09147829 -0.0019559318 -0.011347938
-0.07532665 -0.004348422 0.11983989 -0.05721981 -0.016258277 0.025147801 -0.032316264 -0.0791617
-0.02602875 -0.03857791 -0.06326591 -0.051003374 0.10730822 -0.095376834 -0.025052154 0.0630637
0.067158096 -0.055339642 -0.04728294 -0.084476314 -0.04021193 0.07405847 -0.0065260613 -0.024663966
-0.03312846 0.051322255 0.1312054 -0.018597983 -0.04664533 0.068451695 -0.10542946 0.064744905
-0.044604383 -0.10595438 -0.02136019 0.12501982 0.009891833 0.00831393 -0.037349366 0.010270321
0.024922116 0.106283374 -0.09273117 -0.09796782 0.027419226 -0.026985675 0.057516426 -0.17549409
0.21025237 -0.014644845 -0.014830325 0.013327613 0.17225051 0.04388171 0.19735976 -0.17829128

bias f4 [256]
00000000: aeaf 2e3c 0000 0000 5b0b 223c 6c68 cf3b
00000010: 0000 0000 68a5 81bb 1e64 5b3c 0000 0000
00000020: 0000 0000 0fe4 df3b 1c01 79bb 882d a03b
00000030: 1d64 dc39 0128 19bb 7097 78b8 0000 0000
00000040: 41d8 d6ba 5c69 523a cd1f 833b 0e83 bdbb
00000050: 0000 0000 0000 0000 ddbc 7c3c b2c4 033c
00000060: 0000 0000 0000 0000 7e14 bebb 44fd 203c
00000070: 0000 0000 0728 2e3c fd95 1b3c 0000 0000
00000080: 0000 0000 403e 22bb d8aa 02bb 74fc 8f3b
00000090: 758b 4e3b 543f 0a3c 0000 0000 bcfd 49ba
000000a0: 4a8a eeba 116a 9d3b 0000 0000 0000 0000
000000b0: 276d 073c 3274 e43a 0000 0000 4871 233c
000000c0: 0000 0000 795f cf3b 1ad7 f3b9 8a16 3e3c
000000d0: 802b e93b 790d be3b db1a 3f3c 7442 503c
000000e0: 0000 0000 0000 0000 753c 433c b84b 083c
000000f0: 4ff6 983b 9a12 1e3b bb89 b43a cbea 67b9
00000100: adb8 133c e0de 4f3c 0000 0000 0000 0000
00000110: 25cd 4dbb 3833 403b 601a d43b b04d 9839
00000120: 4f9b 373c 5a0c 86bb ec48 cb3b 0000 0000
00000130: 0f83 4f3c 2f0b e6bb 26f0 4a3c fcf2 463c
00000140: 0000 0000 02bb a73b 0000 0000 0000 0000
00000150: 6aab 273c 765a ab3b e6a4 8f3b 9910 2fbb
00000160: 0000 0000 0000 0000 21ce e43b 6d6e 2c3c
00000170: 0da2 433c 0000 0000 15c5 4b3c 994f 3b3c
00000180: e459 25bb 0000 0000 a733 74bb 0955 f03b
00000190: 0000 0000 5179 1ebb 0000 0000 0000 0000
000001a0: 5aaf 4a3c 0000 0000 0000 0000 0000 0000
000001b0: 0000 0000 9e18 3f3c 6f0e cb3b 0000 0000
000001c0: 41f7 7fbb d69a 923b f764 ed3b 6725 ecba
000001d0: 0000 0000 ef7b 983a 2b39 af3b 4894 663c
000001e0: 7cc3 503c 06e7 343c bbd0 653b 7df9 2dbb
000001f0: 0000 0000 0000 0000 348d bab7 0000 0000
00000200: ded2 123c 3bd6 dbb9 48ec 083c 5c0a e9bb
00000210: 101d 0b3b a6c1 353c ecd9 3e3b 0000 0000
00000220: 0e2f 113b e17e e8bb 0000 0000 0000 0000
00000230: b313 aabb f9a9 82bb e09b f3ba 0000 0000
00000240: 0000 0000 0000 0000 0c93 8f3c 3a61 a9bb
00000250: 0000 0000 884b a93a 7622 1a3c 960d 033c
00000260: f0b3 423c 0000 0000 0000 0000 8c70 05b6
00000270: 5688 b53b fcfa 523b 0000 0000 bc6e 143c
00000280: 4052 8e3b 0000 0000 bd05 0e3c 7764 a1ba
00000290: 7f52 2b3c 7e97 243c 0a12 c83b 0000 0000
000002a0: a11c 8fba 0000 0000 d123 aebb 7f20 423c
000002b0: ca31 063c e47f 0d3c 1d1b 84bb 0000 0000
000002c0: 4a89 623b 311e 93bb f4e4 403c 69be 0abb
000002d0: 0000 0000 333b 74bb 2bf0 44bb 0000 0000
000002e0: 35c6 3c3c 0000 0000 da8a 76bb 0000 0000
000002f0: 1cc5 7bb7 d7ee 0d3c 18b8 fe3b 866e 2b3b
00000300: 11a4 3fbb a30c 6b3c 0000 0000 7658 dcbb
00000310: f145 363c bdef 79b9 0000 0000 0000 0000
00000320: 0000 0000 08da f93b 0000 0000 d8a2 13bb
00000330: 517c 31bc 0000 0000 733d 823b d497 3cbb
00000340: 0000 0000 82b0 333c 0000 0000 0000 0000
00000350: 5625 ecba e136 a5bb 0000 0000 f47f aa3b
00000360: 0000 0000 0000 0000 a0e6 1a3c 0000 0000
00000370: 0000 0000 f065 46bc 7eb3 f039 3e3e 0a3c
00000380: 3c6a 323c 0000 0000 0000 0000 bca5 333c
00000390: 0000 0000 0000 0000 bce6 92bb fb8a 0f3c
000003a0: 0000 0000 b2f4 bd39 e517 623c 405f c33a
000003b0: 6825 ecba 0000 0000 6a53 61bb a588 ba3b
000003c0: d309 9abb 0000 0000 0000 0000 0000 0000
000003d0: 8cf9 c9bb 3870 813b 0000 0000 6625 ecba
000003e0: 0000 0000 adbf e7bb 476b bab9 0000 0000
000003f0: 92bd 61bb 3c97 b83b 0000 0000 0000 0000
0.0106620025 0.0 0.009890403 0.0063295867 0.0 -0.0039564855 0.013390569 0.0
0.0 0.0068326066 -0.0037995046 0.0048882402 0.0004203626 -0.0023369791 -5.9268845e-05 0.0
-0.0016391353 0.0008026564 0.0040015937 -0.005783445 0.0 0.0 0.015425888 0.008042501
0.0 0.0 -0.0058007827 0.009826008 0.0 0.01062966 0.009496209 0.0
0.0 -0.0024756342 -0.0019938257 0.0043941084 0.0031516228 0.00843795 0.0 -0.0007705351
-0.0018199172 0.004803904 0.0 0.0 0.00826577 0.0017429648 0.0 0.009975739
0.0 0.00632852 -0.00046508835 0.011602053 0.0071157813 0.005799946 0.011664118 0.012711156
0.0 0.0 0.01191627 0.008318834 0.004668034 0.0024119974 0.0013773957 -0.00022117344
0.009016198 0.012687415 0.0 0.0 -0.0031402793 0.0029327404 0.0064728707 0.0002904958
0.011206462 -0.004090828 0.0062037613 0.0 0.012665524 -0.007020376 0.012386357 0.012142893
0.0 0.0051187286 0.0 0.0 0.010233739 0.0052292896 0.004383671 -0.0026712774
0.0 0.0 0.0069825803 0.010524374 0.011940491 0.0 0.012437125 0.011432552
-0.002523058 0.0 -0.0037262233 0.0073343557 0.0 -0.0024181197 0.0 0.0
0.012370909 0.0 0.0 0.0 0.0 0.011663584 0.006196789 0.0
-0.0039057287 0.0044740243 0.007244702 -0.0018016518 0.0 0.0011633615 0.005347391 0.014073439
0.01274192 0.011041408 0.003506704 -0.0026546412 0.0 0.0 -2.223868e-05 0.0
0.0089614075 -0.0004193055 0.008357115 -0.0071118306 0.002122704 0.011093533 0.002912159 0.0
0.002215329 -0.0070952033 0.0 0.0 -0.0051903366 -0.0039875475 -0.0018585883 0.0
0.0 0.0 0.017526172 -0.005169061 0.0 0.0012916187 0.00940763 0.007998845
0.011883721 0.0 0.0 -1.9884055e-06 0.005539934 0.0032193055 0.0 0.009059604
0.004343301 0.0 0.00866836 -0.0012313266 0.01045668 0.010045884 0.006105666 0.0
-0.0010918566 0.0 -0.0053143282 0.011848568 0.008190582 0.0086364485 -0.0040315525 0.0
0.0034566694 -0.004489683 0.011773337 -0.0021170622 0.0 -0.003726673 -0.0030050378 0.0
0.011521866 0.0 -0.0037619383 0.0 -1.5006659e-05 0.008662901 0.0077734105 0.0026158406
-0.0029242078 0.014346275 0.0 -0.0067244126 0.011125074 -0.000238358 0.0 0.0
0.0 0.0076248683 0.0 -0.0022527482 -0.010832862 0.0 0.0039746105 -0.002877702
0.0 0.010967376 0.0 0.0 -0.0018016498 -0.0050419425 0.0 0.0052032415
0.0 0.0 0.009454399 0.0 0.0 -0.012109265 0.000459101 0.008437691
0.010889586 0.0 0.0 0.010964807 0.0 0.0 -0.004483072 0.008761163
0.0 0.000362312 0.013799642 0.0014905706 -0.0018016519 0.0 -0.0034381994 0.005692559
-0.004700878 0.0 0.0 0.0 -0.0061637815 0.003950145 0.0 -0.0018016517
0.0 -0.00707241 -0.00035556612 0.0 -0.0034445268 0.005633263 0.0 0.0

weight f4 [256, 256]
00000000: 7245 14be f21a 48bd fe54 6a3d e0f8 babd
00000010: e8bc acbc a4a5 0ebe 807b f23d a30e d9bd
00000020: 5bd3 503c 6c95 ce3c 10a3 95bc 6124 05bc
00000030: 2d8e 9dbd b34f d23d 5e48 5ebd 256d d33d
00000040: bbfa 0cbe 4110 ca3d 07ee d7bd a5ef 81bd
00000050: 1e6a 03bc e4b7 61bd 53bc 24bd 5fda 66bd
00000060: 8655 6e3d 841d 6cbc ee4f 0cbd ab7f 7a3c
00000070: c68e c1bb 5876 a73c 18ed 18be 6ec8 07be
00000080: b091 ff3d fdfe 0ebe f257 07be 5599 b63c
00000090: e38e 6a3d cc5f 9f3d 813c f83d a0f5 213d
000000a0: 84df aa3d ec9c b9bc b49c 0b3e 15bd 843d
000000b0: 7bdd b73d 4fa9 743a 88ad d1bd c739 0d3e
000000c0: a458 b3bd f7a9 87bc 6f98 bc3c 9f6c 543d
000000d0: 616e 60be b901 743d 5a30 edbd f45d 293d
000000e0: 4bf8 8cbd be4c c2bc da3c 74be f76a b2bd
000000f0: 0e52 a53d 5df7 da3d 894e 783d 6bae 48bd
00000100: f7c7 eabd 601b c43c 49e1 a23c 17dd 2bbc
00000110: 437a 843d 1d0b 42bc 979c 333c fa82 1c3d
00000120: 35b7 bd3c b3d3 68bd bc7c 95bc c931 25be
00000130: 83a9 15bd fafd 84bd 11a1 22bd 9951 f13c
00000140: 10a7 05be f8f3 f8bc 0ef2 d0bd a661 743d
00000150: 41c8 1e3d 70cd 95bd 8e84 4bbd dc9d d53d
00000160: 99d4 b8bd c523 c73c 59ac 86bd 1487 68bd
00000170: 9235 ba3d 30ea 853d 7096 dd3c 4a3c 823c
00000180: 6366 1cbc 8e2c b9bd 3e0b 75bc b8e1 e2bc
00000190: 3083 87bc 91d6 30ba 83e1 c93d 5850 c93d
000001a0: 7a93 aebd a8b6 e5bc 0396 0d3e 2aae 88bd
000001b0: baa2 8dbd 6272 79bd ec44 f3bd 76a7 053e
000001c0: 425c 80bd 6b21 29bd 870a e9bd 2598 f33b
000001d0: df0c b03d 4546 16be fd47 213c 0a2a b93d
000001e0: 122b 9b3d a6fd 183d da31 743d e9d5 cebb
000001f0: 6f8f dfbd 619a bf3d 7d14 0f3e c2a6 c3bb
00000200: 6003 47bc fe76 dbbb 7b29 b3bd 64fa 04be
00000210: 9d71 aabc 7ee3 203d 4ef3 f1bc 8604 7e3e
00000220: 7497 8bbc 3de7 21bb 3381 1dbd d00e 273e
00000230: d3d7 973d d037 60bc a5e5 df3c 70a5 003d
00000240: d41a e73c 6712 7ebd ed58 653c 32b3 2dbe
00000250: a2d6 2fbe 82fc c6bd 9d61 78bd e728 543d
00000260: 44e5 48bb eb96 f83d a3c8 e13d 6596 c1bc
00000270: 7df8 933d 45ef 7cbd eb90 583e d054 7cbd
00000280: ffe1 a0bc 24de 31be 390d 00bc 79f8 88bd
00000290: 563c 3b3d 0fbe 65bd 9afd 18be 7b9b 79bc
000002a0: c9fb e5bc 8432 b03b 16e9 9dbd 4c71 0abe
000002b0: 281f 4e3c 28a8 183d 2415 73bd d13f 093e
000002c0: 2147 d93d 1ec1 c43d 790e db3d 22fa ddbd
000002d0: a902 27be 2657 9b3d 56d1 59bc 523b 38bd
000002e0: c67c 3dbd 52dc 0cbd 76c4 423d f110 433d
000002f0: fdad 953d 1ed6 52be 27dc dfbd 9c80 f33c
00000300: 5b8f b93d dad4 28be 0c83 fb3d 240e 353d
00000310: 4b3d 843d 5ab4 b4bd ac5f b33d af51 24bd
00000320: d23f e03d 4c04 a0bd 0f0c 393e 140b ba3d
00000330: 679a 42bd f3ac e7bd 73e9 99bd c51b ba3d
00000340: 7bb0 3abe aa4a 8fbd 84ea b9bc 19c6 f0bb
00000350: 7e41 133e 5e3c 40bd 83ae 5f3c 3bbf a0bd
00000360: b089 24be 6cd3 a73d eda6 c7bd e0f9 a03d
00000370: bee6 afbc b42f 023e 893c babd 5ae0 283c
00000380: 2537 8dbd dcbc f33d 16e9 b6bd 3edc 6f3d
00000390: aa2c 2bbd 8fc5 253e fc8f 1c3c 3f23 323e
000003a0: 5503 e63c 0d37 06bd 0ef5 b6bd 653a 503d
000003b0: a480 bebd c3f7 dbbc 915e 0f3d a784 1fbc
000003c0: 3061 a13c 7ccf 413d df54 93bd 03fc 003e
000003d0: b33b 543d d89b ea3d 5862 693d 7b88 953d
000003e0: d348 32be 9f3a 963d 6243 3ebe fb44 4dbe
000003f0: 8415 c7bb 3bee eb3c e701 54bd da75 6e3d
-0.14479616 -0.048853822 0.05720996 -0.091295004 -0.021086171 -0.13930374 0.11839962 -0.10598495
0.012745704 0.025217734 -0.01826623 -0.008126349 -0.076931335 0.10269108 -0.054268233 0.10323552
-0.13767521 0.098663814 -0.10543447 -0.06344537 -0.008020906 -0.055107012 -0.040218662 -0.0563606
0.05818703 -0.014411334 -0.034255914 0.0152892275 -0.0059069125 0.020442173 -0.14934194 -0.13260052
0.124789596 -0.13964458 -0.13217142 0.022289911 0.057265174 0.07781944 0.12120915 0.039540887
0.083434135 -0.022657834 0.13633996 0.06481377 0.08977791 0.000933309 -0.102381766 0.13791572
-0.08757141 -0.016560538 0.023021905 0.0518614 -0.21917106 0.059571955 -0.11581488 0.041349366
-0.068832956 -0.023718234 -0.23851338 -0.08711808 0.08072291 0.10691712 0.060621772 -0.048994463
-0.114639215 0.023938835 0.019882815 -0.010489724 0.06468632 -0.01184347 0.010962627 0.038210846
0.023158649 -0.056842517 -0.018247955 -0.16132273 -0.036538612 -0.06493755 -0.039704386 0.029457854
-0.1305201 -0.03038977 -0.10202418 0.059663437 0.038765196 -0.07314575 -0.04968696 0.104305
-0.09024925 0.024309048 -0.065758415 -0.056769446 0.09092249 0.06538808 0.027049273 0.015897889
-0.009545895 -0.09041701 -0.014956294 -0.027695522 -0.016542047 -0.000674584 0.09857466 0.098297775
-0.08524223 -0.028041199 0.13826756 -0.06673844 -0.06915803 -0.0609001 -0.1187838 0.13052163
-0.06267597 -0.041291635 -0.11378961 0.0074339085 0.08596205 -0.14675243 0.0098438235 0.090412214
0.075765744 0.037351273 0.059617855 -0.006312121 -0.1091603 0.09355617 0.1397266 -0.005970807
-0.012146801 -0.0066975346 -0.08748146 -0.12986141 -0.020806128 0.039279453 -0.029534962 0.24806413
-0.017039992 -0.002470448 -0.038453292 0.16314244 0.07414212 -0.013685182 0.027331183 0.031407773
0.028211035 -0.06202927 0.013998252 -0.16962889 -0.1717172 -0.09716131 -0.060639966 0.05179682
-0.003065423 0.1213816 0.110245965 -0.023631284 0.0722513 -0.061751623 0.21149032 -0.06160432
-0.019639013 -0.17369896 -0.0078156525 -0.066880174 0.045711838 -0.056089457 -0.14940491 -0.015234823
-0.028074162 0.0053771157 -0.07710473 -0.13519782 0.01258067 0.03726974 -0.059346333 0.1340325
0.1060927 0.09607147 0.1069612 -0.10838725 -0.16309609 0.075849816 -0.0132945385 -0.044978447
-0.04626157 -0.0343898 0.04755064 0.04762358 0.07308576 -0.20589492 -0.109306626 0.029724412
0.09060546 -0.16487446 0.122808546 0.04420294 0.06457003 -0.08823462 0.08758482 -0.040116962
0.10949673 -0.078133196 0.18071006 0.09084144 -0.04751053 -0.11312284 -0.0751523 0.09087328
-0.18231384 -0.06996663 -0.022694834 -0.007347834 0.14380452 -0.04693257 0.013652447 -0.07848974
-0.16068149 0.081946224 -0.097486354 0.0786016 -0.021472331 0.1271351 -0.090935774 0.010307396
-0.068952836 0.119012564 -0.08931176 0.05855965 -0.04179064 0.16188644 0.009555813 0.17396258
0.02807776 -0.032767344 -0.08933459 0.05083694 -0.0930188 -0.02685154 0.035002295 -0.009736217
0.019699663 0.047317013 -0.07193922 0.12596135 0.051814746 0.11455506 0.056978554 0.07301422
-0.17410593 0.073354 -0.18580392 -0.20045845 -0.006075563 0.02880012 -0.051759627 0.05821786

bias f4 [256]
00000000: 0000 0000 0000 0000 ecec d7bb 0000 0000
00000010: c457 263c 0000 0000 c898 77ba 6b25 ecba
00000020: 0000 0000 ba84 9d3c 0000 0000 0000 0000
00000030: fb9c 453c 0000 0000 40d6 7e3b 0000 0000
00000040: c0a6 4a3c 1a20 94bb 27df ed3b 21d6 6aba
00000050: 0000 0000 0000 0000 fe55 533c 827b 503c
00000060: 6aab 5d3b 258c 03bc 6f24 ecba 8e2d 4d3c
00000070: a658 44bc 0000 0000 4cf3 013c cf44 533c
00000080: 0537 d53b b061 5a3c 91d0 02b9 1ffe 163c
00000090: b5af 4c3c 7f1b 463b 0000 0000 8639 5fbc
000000a0: 49ac 633c 0000 0000 cebb 3c3c abab 92bb
000000b0: 9289 af3b 0000 0000 da8a 963b 0000 0000
000000c0: 06bb 4ebb c475 fd3b 0000 0000 bd09 4e3c
000000d0: 48d3 513c 3fa5 1ebc 4926 70bb 071e 1e3c
000000e0: 3df8 513c 3bb3 573c 0000 0000 2888 453b
000000f0: d72b 4dbb 0000 0000 3331 013c 63f1 51bc
00000100: f60f e0ba c228 4c3c e0c8 c23b bc8f 843b
00000110: 5f3f 013c af18 503c 0000 0000 91c4 4c3c
00000120: a10e 4c3c 0000 0000 d306 94b9 14c2 d8b8
00000130: 0000 0000 e8df e5ba 0000 0000 0000 0000
00000140: 0000 0000 e268 e33a 0000 0000 0000 0000
00000150: c4d4 4b3c a90f 37bb 29a0 8b3a 0000 0000
00000160: 18d3 f83b a758 4b3c 1f67 a23b d599 2ebb
00000170: 1b22 5a3c 7a2e a1bb 7aa5 323c c7cd ecbb
00000180: 0a77 cbbb 0000 0000 0000 0000 d8b2 96bb
00000190: 9953 d2bb c156 b6bb 69da 2e3b 4479 3bbb
000001a0: 100e 563c bb06 d2bb 0000 0000 40fd da3b
000001b0: f507 6e3a 0000 0000 0000 0000 f49f 29bb
000001c0: 0000 0000 1075 04b9 d072 44bc ed19 403b
000001d0: f795 4d3c e8d2 9f3b b66c faba 0000 0000
000001e0: 0000 0000 0000 0000 9efd 593c 7cc9 dc3b
000001f0: 0000 0000 dc1a 73ba a5d9 b73b 6303 1ebb
00000200: 8231 6c3c 7eb8 4c3c ec55 42bc 0000 0000
00000210: 6d1c 4b3c 8e5a 3abc 03c1 7bbb 0000 0000
00000220: 42ea 403c 56e7 ffbb 0000 0000 cf04 da3b
00000230: 6235 40bc 64f5 353c 1fb1 0c3c b88a 4d3c
00000240: e873 db3a 0000 0000 4687 1739 3679 143c
00000250: 3e9a 9e3b 6d2e 4b3c 248b c93b f876 5d3c
00000260: f206 01bc 6825 ecba d96e c33b 2663 1e3c
00000270: 3f17 213c 5852 e4bb 8bc1 063c fb71 a7bb
00000280: 9439 503c 0000 0000 3d6c a83b fcb8 103c
00000290: d4e1 4f3c 7d71 a3bb 8125 b03a 1906 fb3b
000002a0: c014 253b 0000 0000 0000 0000 ff80 533c
000002b0: 1fb5 d4bb 3933 4e3c 91a8 533c c61a 633c
000002c0: 0000 0000 7c86 4c3c 7249 b43b 60c1 5f3c
000002d0: 0000 0000 4070 85bb f5ee 3cbc a9f9 373b
000002e0: 4a85 d3bb 996b 493c da91 4e3c 0000 0000
000002f0: b214 143b 4b57 eabb bc23 773c 4ae2 4b3c
00000300: 0000 0000 b4e5 41bb 0000 0000 ec65 863b
00000310: 6e4c 22b4 8436 173c 8177 673c 0000 0000
00000320: 7ef3 4f3c 74df 4b3c c3c9 4b3c aeff 633c
00000330: a514 e13b 0000 0000 0000 0000 0000 0000
00000340: 22ae 4b3c 1515 5abb 9907 533c 0000 0000
00000350: 8aba 54bc 0000 0000 d3cb a33b 4b66 1bbb
00000360: 424c 0b3c f77f 553c 0000 0000 0000 0000
00000370: 0000 0000 4f6a ddbb 0000 0000 52a8 92bb
00000380: c736 db3b 9cde 5e3c affe 273c c81b fbbb
00000390: 0000 0000 2044 363a f9a7 a7bb 40c3 e9ba
000003a0: c2c8 a9bb 0000 0000 3379 fa3b 54f4 853c
000003b0: f62e 43bc 39f9 003c 987f 66bb e402 4f3c
000003c0: 9c58 4d3c 0000 0000 8b59 4c3c dff9 a73b
000003d0: 47e1 5c3b 7a63 0f3c 1da6 4c3c 1f5e d93b
000003e0: 0000 0000 0000 0000 dd06 d3ba 8edf 4c3c
000003f0: bbeb 5e3c 5e82 b63b 5672 013c 376c f53c
0.0 0.0 -0.0065895226 0.0 0.010152761 0.0 -0.00094450684 -0.0018016523
0.0 0.019228328 0.0 0.0 0.012061353 0.0 0.0038885027 0.0
0.012368858 -0.0045204284 0.007259268 -0.00089582993 0.0 0.0 0.01289892 0.012724759
0.0033824095 -0.0080290185 -0.0018016229 0.012523068 -0.011984026 0.0 0.007931542 0.012894823
0.006506803 0.013328955 -0.00012475463 0.009215861 0.012493064 0.0030228791 0.0 -0.0136245545
0.013896056 0.0 0.0115193855 -0.004476031 0.005356976 0.0 0.004594189 0.0
-0.003154458 0.007734986 0.0 0.012575564 0.012806721 -0.009682952 -0.0036643913 0.009650714
0.012815532 0.0131652905 0.0 0.003014097 -0.0031306648 0.0 0.007885265 -0.012813899
-0.00170946 0.012460889 0.0059443563 0.004045455 0.007888644 0.0127011975 0.0 0.012498037
0.01245466 0.0 -0.00028233844 -0.000103358325 0.0 -0.0017538043 0.0 0.0
0.0 0.0017349983 0.0 0.0 0.012440864 -0.0027932918 0.001065259 0.0
0.0075935237 0.012411273 0.0049561406 -0.0026641984 0.013313795 -0.0049188705 0.0109037105 -0.007226679
-0.006209259 0.0 0.0 -0.0045989566 -0.006418657 -0.005564541 0.0026680476 -0.0028606215
0.013064876 -0.0064094937 0.0 0.006683022 0.0009080165 0.0 0.0 -0.0025882693
0.0 -0.0001263211 -0.011990264 0.0029312328 0.012547961 0.004877437 -0.0019105885 0.0
0.0 0.0 0.013305096 0.006737886 0.0 -0.0009273717 0.005610662 -0.0024110905
0.0144161 0.012495158 -0.011861306 0.0 0.012396914 -0.011374129 -0.0038414604 0.0
0.011774601 -0.00780956 0.0 0.0066534053 -0.011731477 0.011105869 0.008587151 0.01254528
0.0016742917 0.0 0.00014450875 0.009062102 0.0048401644 0.0124012055 0.00615062 0.013517134
-0.007875191 -0.0018016519 0.005964142 0.0096671935 0.009832202 -0.006967824 0.008224855 -0.005110023
0.01270904 0.0 0.005139856 0.008833166 0.012688119 -0.004987894 0.0013438911 0.007660639
0.002518937 0.0 0.0 0.012909173 -0.006491318 0.012585455 0.012918607 0.013861364
0.0 0.012483235 0.0055019194 0.013656944 0.0 -0.004072219 -0.011531581 0.0028072393
-0.0064550983 0.01229372 0.012608016 0.0 0.0022595343 -0.0071515194 0.015084203 0.012444088
0.0 -0.0029586377 0.0 0.0041015055 -1.511523e-07 0.009229306 0.014127613 0.0
0.01269233 0.012443412 0.01243824 0.013915939 0.006868916 0.0 0.0 0.0
0.012431653 -0.0033276726 0.012880229 0.0 -0.0129839275 0.0 0.004998663 -0.0023712094
0.008502068 0.0130309975 0.0 0.0 0.0 -0.0067570577 0.0 -0.0044756318
0.0066898796 0.013602879 0.010253592 -0.007663224 0.0 0.00069529004 -0.0051164594 -0.0017834678
-0.005181403 0.0 0.0076438426 0.016351856 -0.011913052 0.007871919 -0.0035171267 0.0126349665
0.012533333 0.0 0.012472521 0.0051262225 0.0033703612 0.008751744 0.012490776 0.0066335346
0.0 0.0 -0.0016100068 0.0125044715 0.013606007 0.00556974 0.007900795 0.029958827

weight f4 [2, 256]
00000000: a448 17ba a01a ecb9 a9fb 9dba 5911 bab9
00000010: b1ad 663b f092 af39 a7a0 a5bc 5356 f9ba
00000020: 8bcb b539 af96 14bd 7830 5139 c228 0f3a
00000030: 9490 17bc 41d2 f8b7 9f5b 76bc 6d4e 443a
00000040: f80a 0dbc 3e3d bb3a e6c2 04bb 3ace 093d
00000050: 5004 1aba bb32 8eb9 2e03 97bc 9423 11bc
00000060: bcf2 2bbc d810 7eba 46c3 7638 424c edbb
00000070: 339a c33b 9096 a938 9a93 d03c b87b 85bb
00000080: 04d2 073c a299 83bb 31d3 89ba 6c07 a137
00000090: 8685 16bc cfaa 153c b04f 08ba 7ab6 2f3b
000000a0: 00e2 88bc 5b6e e3b9 3310 bdbc 67fe 11b9
000000b0: 613d 0b3b 737f e2ba 11f1 6f3c 10ed 48ba
000000c0: bb9f 013b da98 a43b 3e31 1d3a 906f 87bc
000000d0: 07b3 9fbb 9b99 b23b ff10 1e3b 8872 473c
000000e0: 5971 4dbb 5823 84bb 6738 ce3a 10cd 183b
000000f0: 85ce 6aba 9458 28b9 ed55 acbb 7bdf 963c
00000100: 2c44 553c 53e0 a2bb 778c 8dbd dfa3 dd3d
00000110: b29f 66bc f502 65bc f484 2a3a 486a 01bc
00000120: 7f67 32bc 14b4 0439 b304 5e3a 11cc 5a3c
00000130: 7e85 04b9 346a b9ba d2dd cb39 7b33 a139
00000140: c32d 6a3a 7004 0f3c d454 d739 27d4 1d39
00000150: ffa2 63bc 0abb fe3c a027 183c 97d3 ba39
00000160: b0fe dd3c e6fd b2bc f3f4 edbb a0eb 8a3b
00000170: 4248 a7ba ae93 093a 2358 8ebc 65be ae3c
00000180: 953a d0ba 8740 9eb9 4431 03ba b1e9 683a
00000190: 69bc 893d 03bf 9b3a 7afb a53c a5a7 ab3a
000001a0: 3940 2f39 849c 07ba 2073 89b9 5ab5 823b
000001b0: 0b4c 7d3c 5d2b e937 a237 b43a e1ff 343c
000001c0: 3c19 eb39 aca4 853d b043 bfb9 3196 59bd
000001d0: 3e57 05bc 02ba 003c 3a77 803b c99f b6b8
000001e0: cbb7 123a 072f 25ba 7e34 63bc 962e f13c
000001f0: 6eba 59b9 1d0c 1e3b 6e60 2d3c 199e 3e3c
00000200: 2dbb ae3a b4f6 13bc e2ce 603b 0e43 d63a
00000210: 7157 debb 5d90 5b3c 9793 09bd 7b38 28ba
00000220: f1e2 36bc 82a6 853c 0a60 6c3a 3980 263b
00000230: c5e1 213c 14be a83c c767 4e3c d13c abbc
00000240: bbab f63b c696 163a fbc9 373c e13c 143c
00000250: f13f 8bbb b1bc 4bbc fb13 5a3c 0def 6abb
00000260: 7292 e1ba 0f52 6139 c0af 22b9 d322 e1bc
00000270: e085 10bd 3dc1 d13b 3ec4 863c 9101 58bb
00000280: 1b36 b2bc c03a 4bb9 d56d 2c3b 100e 273c
00000290: 375a a2ba 8e38 cf3a dfaf 633c f44c c9bc
000002a0: 8b74 e7bb 6ce2 fa39 de2e b03a 8f21 8abc
000002b0: 6902 d339 f731 6ebc e42b b7bc c57a d4bb
000002c0: a914 44b9 9f29 0dbb f482 8639 f372 50bc
000002d0: 6225 cab9 16cd e53c 39f2 063c b0bd c63b
000002e0: 402a bf39 38fc 3ebc 8a1f 21bc 0f5b 453a
000002f0: 5028 403c b826 3f3d ba66 cbbc afa6 7dbb
00000300: 3d73 11b8 fd2b edb7 9496 9139 c036 bdbc
00000310: 3194 99bc 2655 3d3c 5663 9bbc 6ea3 0f3a
00000320: 40ab 81bb 10a8 61bc 8645 99ba bf71 7ebb
00000330: 4437 93bb 13bc 033a 5845 3fba 19d6 3439
00000340: 27bc b938 6ccd 0abb 8be9 08bb d8dc 3a3a
00000350: 0110 9d3c 4ce9 e939 ec6d 8a3c 0c8b 743a
00000360: 9144 b0bc ffb0 e8ba c0f2 53b9 775c 69b8
00000370: 424f 9eba 4a48 193c 4020 05ba e3a6 963a
00000380: 55e1 debb 686f 1a3b fbd8 083c 55b7 d0ba
00000390: 2bde 13b9 e840 8d3c ec0c 133c 15b1 f9ba
000003a0: 1a00 093b 53c0 b73a 2b90 0cbb 9c23 93bc
000003b0: 5b0f 263c 6b8e 93bb 43c6 d93c 03d3 80bc
000003c0: 4946 963a c790 dfb8 ad8a a0bc 4818 d43c
000003d0: 8728 b8bd 3ed6 ba3b 7a10 67bc 2e85 533c
000003e0: 4267 3e3a d97c a2b7 cb6b 09ba 354a efba
000003f0: 6ad9 0dbb 44b5 aabd 847c f639 414b f43c
-0.0005771017 -0.00045033265 -0.001205315 -0.0003548961 0.0035198743 0.00033488078 -0.020218207 -0.0019022919
0.00034674662 -0.036276516 0.00019949849 0.00054610905 -0.009250779 -2.9661811e-05 -0.015036493 0.0007488493
-0.008608572 0.0014285219 -0.002025777 0.03364394 -0.00058752764 -0.00027122148 -0.018434133 -0.00885858
-0.010494884 -0.0009691841 5.8832833e-05 -0.0072417567 0.0059693097 8.0865924e-05 0.025461007 -0.0040735863
0.008289818 -0.004016117 -0.001051521 1.9196152e-05 -0.009187108 0.009134962 -0.00051998626 0.0026811645
-0.016709328 -0.00043379035 -0.023079013 -0.0001392305 0.0021246301 -0.0017280414 0.014644877 -0.00076647196
0.0019779045 0.005023104 0.00059964124 -0.01653269 -0.0048736366 0.00545044 0.0024119017 0.0121733025
-0.0031348078 -0.0040325336 0.0015733362 0.0023315586 -0.00089571654 -0.00016054726 -0.0052592666 0.01841711
0.013016742 -0.004970589 -0.06911557 0.108222716 -0.01407616 -0.013977756 0.0006504797 -0.007898875
-0.010888933 0.00012655585 0.0008469328 0.013354317 -0.0001263823 -0.0014146031 0.00038884446 0.0003074667
0.00089332106 0.008729085 0.00041071197 0.0001505172 -0.013893842 0.031095047 0.009286791 0.0003563433
0.027098984 -0.021849584 -0.0072618662 0.0042395145 -0.0012762623 0.0005248141 -0.017376011 0.021331022
-0.00158866 -0.00030184185 -0.00050045946 0.00088849204 0.067253895 0.0011882487 0.020261515 0.0013096227
0.00016713225 -0.0005173164 -0.0002621645 0.003988904 0.015460025 2.7795957e-05 0.001374949 0.011047334
0.00044841494 0.06525549 -0.0003648079 -0.05312175 -0.008138476 0.007856848 0.003920463 -8.7081986e-05
0.00055968453 -0.0006301258 -0.013867496 0.02944116 -0.00020764183 0.0024116107 0.010582073 0.011634373
0.0013330929 -0.009030987 0.0034303 0.0016346888 -0.006785326 0.013401118 -0.03358802 -0.00064171077
-0.0111625055 0.016314749 0.00090169965 0.0025406017 0.009880488 0.020598449 0.012597985 -0.020903023
0.007527796 0.0005744513 0.0112175895 0.009047718 -0.004249566 -0.012435124 0.013310428 -0.0035848052
-0.0017209782 0.00021488241 -0.00015514996 -0.027482426 -0.035283923 0.0064012096 0.016450997 -0.0032959918
-0.021754315 -0.00019381475 0.0026310582 0.010196224 -0.0012386505 0.0015809701 0.013896911 -0.024572827
-0.0070634536 0.00047852413 0.0013441702 -0.016861705 0.00040246852 -0.01453828 -0.022359796 -0.006484362
-0.00018699713 -0.00215397 0.0002565604 -0.0127227185 -0.00038556295 0.028051894 0.008236461 0.006065093
0.00036461838 -0.011656813 -0.00983418 0.00075285224 0.011728361 0.046667784 -0.024829257 -0.0038704087
-3.4678018e-05 -2.8273085e-05 0.00027768745 -0.023097396 -0.018747421 0.0115559455 -0.018968266 0.000547937
-0.003957182 -0.013772979 -0.0011693693 -0.0038825122 -0.004492672 0.00050252787 -0.0007296405 0.00017245895
8.8565335e-05 -0.002117957 -0.0020891156 0.0007128245 0.01917267 0.00044615043 0.016898118 0.0009328581
-0.02151707 -0.0017752944 -0.0002021296 -5.5637644e-05 -0.0012078064 0.009355614 -0.0005078353 0.0011493828
-0.006801764 0.0023564938 0.008352513 -0.0015923778 -0.00014101776 0.017242864 0.008975249 -0.0019049967
0.0020904602 0.0014019109 -0.0021448235 -0.017961316 0.010135497 -0.0045030615 0.026583796 -0.015725618
0.0011465038 -0.000106604355 -0.019597376 0.025890484 -0.08992105 0.005701809 -0.014103049 0.0129101705
0.00072633114 -1.9370042e-05 -0.00052421977 -0.0018256368 -0.0021644481 -0.08335355 0.00047013548 0.02982104

bias f4 [2]
00000000: cbd0 0040 1e4d 7dbf
2.0127437 -0.98945796
