models/ppo_simple_model.pth (torch, 23947 bytes, 7 tensors)

weight f4 [64, 3]
000000 8d e4 b9 bd 0f 3c a5 bd 8b 34 a9 be 91 36 8e bc
       -0.09076796 -0.08068096 -0.330479 -0.017360004
000010 0b 55 2e bc e6 41 28 be 95 39 a9 bd 19 d3 c5 bd
       -0.010640393 -0.16431388 -0.08262936 -0.09659404
000020 e0 b1 99 be fd e7 ed 3e 18 be 3a 3f 90 c0 3c bf
       -0.3001852 0.46466056 0.7294631 -0.7373133
000030 07 3e f1 bd 2e 19 81 be 01 19 95 3f e3 9d 8e bd
       -0.11779409 -0.25214523 1.1648256 -0.06963708
000040 ea 0d c6 bd b8 20 8e 3d c7 ac 8d be b7 60 ea bd
       -0.09670623 0.06939834 -0.2767088 -0.11444228
000050 65 5d 5f 3e 55 04 52 3e b4 5a e9 3e a3 ed 25 bf
       0.21812971 0.20509465 0.45577013 -0.6481573
000060 8e b3 46 3e 15 1a 9a be 66 69 41 be 08 f9 32 3f
       0.19404432 -0.30098024 -0.18887863 0.6991124
000070 38 60 85 3f bd ab e4 be 37 56 24 be 10 99 81 3d
       1.0419989 -0.44662276 -0.16048513 0.063280225
000080 8b 2f 03 3d 11 70 7f 3f f1 14 76 3f 81 a6 51 be
       0.032027762 0.99780375 0.96125704 -0.20473672
000090 6b 60 29 3f 1e 3f 84 3e c3 d7 25 3f 3f 31 01 3f
       0.6616275 0.25829405 0.6478235 0.5046577
0000a0 09 86 75 3f 0d 0c 2c bf aa 7f a1 3e c6 4e aa 3d
       0.95907646 -0.6720589 0.31542712 0.08315806
0000b0 c4 a1 58 3f 63 5f 75 3f 14 32 4a 3f 9d e0 6f be
       0.84621835 0.95848674 0.78982663 -0.23425527
0000c0 f5 2a 97 bd d0 b7 db 3b 5c 46 67 3c 85 21 4e 3f
       -0.0738124 0.0067052618 0.014115896 0.80519897
0000d0 c8 e9 a6 3f f7 e4 28 bd 8d cd 42 3f 9f 44 82 3f
       1.3040094 -0.041233983 0.76094896 1.0177191
0000e0 04 f9 3e 3f 8f 4b 7e 3e f1 61 3b 3f 17 a1 5f bf
       0.7459872 0.24833511 0.7319632 -0.8735518
0000f0 bb ea 5a 3f c4 9d 5d 3f 93 ea 73 be 72 b4 25 be
       0.8551442 0.86568856 -0.23819952 -0.16182116
000100 c8 70 bc 3d ad 98 67 bd 6f bd 9b 3e 34 bf 18 3f
       0.09201199 -0.056542087 0.30417964 0.5966675
000110 2f 5d 24 bf 7b 5b ec bd b1 40 ac 3c 33 0c e7 bd
       -0.64204687 -0.11540886 0.021026941 -0.11281624
000120 05 36 33 be 62 1e f0 3d 74 95 18 bd 51 13 c0 be
       -0.17501076 0.11724545 -0.037251905 -0.37514737
000130 07 64 ef 3d 54 53 01 3d 3b d4 6d 3f bb 4b 2c 3f
       0.116890006 0.03157361 0.92901963 0.67303056
000140 51 6c ea be 76 4c 19 3f da d8 f9 3e cf 92 39 bf
       -0.45785764 0.59882295 0.48798257 -0.7248964
000150 43 24 2a be 1f c4 84 be 19 dd 32 3c 7a 00 10 3f
       -0.16615395 -0.2593088 0.010916972 0.5625073
000160 34 ab ba 3e 30 ec 77 bf 4a 3e 8d be 78 63 44 3b
       0.36458743 -0.9684477 -0.27586585 0.0029966515
000170 3c 3b 08 bc 94 fd 7b be 6d fe 9d bd 87 5a 83 3c
       -0.008314904 -0.24608451 -0.077145435 0.016034378
000180 e8 29 a6 bd 03 2d 0a be a4 7a b9 be 6f 61 52 be
       -0.08113462 -0.13493733 -0.3622638 -0.2054498
000190 f3 ad a8 bd 96 d6 78 3e fe 73 1b be 17 ab a9 bd
       -0.08236303 0.24300608 -0.15180966 -0.08284586
0001a0 b9 d6 43 3e 95 89 86 3e 99 2b 3b 3e 59 1c 5a 3f
       0.19124879 0.26276842 0.1827835 0.85199505
0001b0 ea 39 ff bd a4 0f 35 3f 69 b8 11 bf ba 13 1b 3f
       -0.12462218 0.7072699 -0.5692201 0.60576975
0001c0 2c 99 8f 3f 25 f9 eb be 51 d2 24 bd 51 b3 a6 be
       1.1218619 -0.4608852 -0.040239636 -0.32558683
0001d0 a5 57 a4 3f 1e c1 61 be e9 ea 57 bd 45 a7 e7 be
       1.2839247 -0.22046325 -0.052714262 -0.45244804
0001e0 43 a1 7a bb fd af 11 bb 3c 0b d5 bd 15 7e bb bd
       -0.0038243092 -0.0022230141 -0.104025334 -0.091549076
0001f0 91 24 5f be 18 6c e0 bc 90 91 23 3f 5e eb 5e 3f
       -0.21791293 -0.027395293 0.63893986 0.8707789
000200 82 ac f0 be f8 16 75 3f 00 c2 52 3f b4 d0 88 bd
       -0.47006613 0.9573817 0.8232727 -0.06680432
000210 62 c2 28 be 6f 93 1e bd 23 f2 1c bc 42 d9 15 3f
       -0.16480401 -0.038714822 -0.009579214 0.58534634
000220 12 ce db 3e b1 a0 f3 3e fb 24 b6 be 7f 75 d2 bd
       0.42930657 0.47583535 -0.3557509 -0.10276317
000230 22 1e 0c bc 91 56 6d be bc 35 68 3e df 4e 86 bd
       -0.008552106 -0.23177554 0.22676748 -0.06558012
000240 de 43 03 bc e6 ad ca be 72 11 89 3d 6b 2f 25 3e
       -0.008011786 -0.395858 0.066927806 0.1613137
000250 d3 f6 16 3f 26 0e 4f 3f e2 c5 29 be 44 7c 40 be
       0.58970374 0.80880964 -0.16579393 -0.18797404
000260 ff d9 0b 3e cf 28 bc 3e 1a d2 0b 3f 26 4a 63 3f
       0.13657378 0.36749884 0.54617465 0.88785017
000270 e0 8a f0 3d 0a 7a 0f be 71 ab bd bd 28 61 55 3f
       0.11745238 -0.14011398 -0.092612155 0.83351374
000280 a0 d4 7f 3f d2 d5 84 be af 9a 9c 3e c8 66 8d 3e
       0.99933815 -0.25944382 0.30586764 0.27617478
000290 19 c7 86 3f f4 90 6d be 3e 07 cf 3a cf b4 82 3d
       1.052951 -0.23199826 0.0015795005 0.06382143
0002a0 dd 91 60 3f e0 d7 4c 3e 83 8e 45 3f e0 c5 f6 3e
       0.8772257 0.20004225 0.7717058 0.48197842
0002b0 54 fa 6f 3f f1 18 2d bf 43 b7 76 3f 99 42 4e 3f
       0.93741345 -0.6761618 0.96373385 0.8057037
0002c0 49 2a 0b bf e1 f6 30 3f 09 f9 0b 3f d7 20 81 3f
       -0.543614 0.6912671 0.5467687 1.0088147
0002d0 61 64 46 be fe 2d 6b bd a8 e0 68 bd 0b ee e5 3e
       -0.19374229 -0.05741691 -0.056854874 0.44908175
0002e0 13 d6 96 3f 03 fd 18 bf d1 95 eb bd 73 7f 88 b8
       1.178408 -0.59761065 -0.115031846 -6.5087246e-05
0002f0 7d ea a5 be 18 07 14 3f d1 06 12 3f ee e1 41 bf
       -0.32405463 0.57823324 0.5704165 -0.75735366

bias f4 [64]
000000 00 00 00 00 00 00 00 00 00 00 00 00 d0 b6 04 3f
       0.0 0.0 0.0 0.5184145
000010 cf a8 03 be 00 00 00 00 00 00 00 00 6e 15 93 3e
       -0.12857364 0.0 0.0 0.28727287
000020 00 00 00 00 c5 ee 2b 3f 00 00 00 00 57 6c 45 3f
       0.0 0.6716121 0.0 0.7711844
000030 57 6b c3 3e ad 20 16 3f c1 53 2f 3e 5c bf 6b 3f
       0.3816783 0.5864361 0.17121793 0.92088866
000040 00 00 00 00 f0 57 6d 3f cb 0d 34 3f da 67 b2 3e
       0.0 0.92712307 0.70333546 0.34844857
000050 4e a6 3e 3f a0 69 0b bc d8 1b e9 3e 00 00 00 00
       0.7447251 -0.00850907 0.45529056 0.0
000060 25 37 0b 3b 00 00 00 00 6d b1 2d 3f 67 a4 ea 3e
       0.0021242585 0.0 0.67848855 0.45828554
000070 00 00 00 00 11 0a 91 3e 00 00 00 00 00 00 00 00
       0.0 0.28327993 0.0 0.0
000080 00 00 00 00 a3 a3 c8 bc 21 95 72 bc 9b 16 89 3e
       0.0 -0.02449209 -0.014806063 0.2677506
000090 b2 c1 8b 3e 2e ee 1c 3f 05 0c 98 be 00 00 00 00
       0.27296215 0.61300933 -0.2969667 0.0
0000a0 00 00 00 00 00 00 00 00 f7 39 16 3f 28 20 5f 3f
       0.0 0.0 0.586822 0.8715844
0000b0 00 00 00 00 2f 78 b7 3e 00 00 00 00 82 01 1c bd
       0.0 0.3583388 0.0 -0.038087375
0000c0 00 00 00 00 04 3a 01 3f 00 00 00 00 3a f5 e2 3e
       0.0 0.5047915 0.0 0.44327718
0000d0 00 00 00 00 bc 1a 58 3f 80 08 f1 3d 00 00 00 00
       0.0 0.84415793 0.11769199 0.0
0000e0 78 f8 97 3e 89 b3 07 3f 93 dc 3e 3f b1 ce 0a 3f
       0.29681754 0.53008324 0.7455532 0.54221636
0000f0 00 00 00 00 74 73 1a 3f 00 00 00 00 9d 2a 0d 3f
       0.0 0.6033242 0.0 0.5514315

weight f4 [64, 64]
000000 fd c5 42 3d d7 39 88 3e 27 91 10 be e3 73 b6 be
       0.047552098 0.26606628 -0.14117871 -0.3563529
000010 17 c1 04 bf c4 4a d9 bc 21 ba 0e 3e d6 f3 59 3e
       -0.5185713 -0.026524909 0.1393819 0.21284422
000020 b7 29 42 be 74 80 f0 be 4b e6 c7 3d ee 2d 10 be
       -0.18961225 -0.46973002 0.09760722 -0.14080021
000030 c6 ee bf 3e bb 86 db 3d d9 b3 05 be 36 74 39 3b
       0.37486857 0.10719057 -0.13056888 0.0028298027
000040 e3 33 52 bd 6d df 18 3e 21 2f 94 3e 4e 4e 48 be
       -0.051319014 0.1492898 0.28942207 -0.19561121
000050 14 ba 18 bd 02 92 4d 3e 01 d1 0d be 85 32 4f 3e
       -0.037286833 0.20075229 -0.1384926 0.20234115
000060 22 d8 ce 3d 25 d4 8f bd b4 9b 4d be 51 5c 38 be
       0.10099818 -0.07022885 -0.20078927 -0.18003966
000070 12 e0 4d bc 16 7b 30 3d df 60 88 bd 9f bb 46 be
       -0.01256563 0.043086134 -0.06659102 -0.1940751
000080 b2 93 d7 3c 3d 10 07 3e a5 f6 96 3d 4f e7 ec bb
       0.026315544 0.13189788 0.073712625 -0.0072297226
000090 48 b6 26 3e 04 c3 c0 bd 6d 92 91 3c da f9 1b 3e
       0.16280472 -0.09412196 0.017770017 0.1523203
0000a0 cd 89 14 3e fa 85 ce 3d 42 46 f1 3d a6 fa a0 bd
       0.14505692 0.10084148 0.11780979 -0.078603074
0000b0 0c 47 c9 3d b4 a9 1d 3e b2 d3 ef 3d bd 6d 00 be
       0.09828004 0.15396768 0.117102996 -0.12541862
0000c0 5a 1d 1e 3e 18 a7 92 3d 97 68 a1 bd e6 68 17 bd
       0.15440884 0.07160777 -0.07881277 -0.036965273
0000d0 42 31 c1 3c 4a c8 28 bc df d3 6d 3d cc d2 11 3c
       0.023583058 -0.010301659 0.058063384 0.008900356
0000e0 e9 3d 9b be 6d 90 c2 bb 88 0c 86 3d 10 ca 5d 3e
       -0.3032067 -0.005937627 0.06545359 0.21659112
0000f0 21 c8 8d 3d 6e 67 a2 be 4b f3 fd 3d b4 dc a8 be
       0.06922937 -0.31719536 0.1239992 -0.32980883
000100 f2 a9 6d bd 74 d7 4d 3e c7 36 dd bd f3 d7 20 3f
       -0.0580234 0.2010172 -0.108014636 0.6282951
000110 e4 f5 e3 bf 53 6c 7f bc 7e 64 e6 3d 02 34 2b 3f
       -1.7809415 -0.015589791 0.11249636 0.6687623
000120 f0 9e 14 bd b9 19 1e 3f 90 95 8d 3e 6f 38 90 3e
       -0.036284387 0.61758 0.2765317 0.28168055
000130 e0 32 e2 bd 41 e0 f8 3e de 20 b4 be 7d 79 b1 3e
       -0.1104486 0.48608592 -0.35181326 0.34663
000140 6a ee bc 3c 74 4e 0b 3f f7 f9 e7 3d e0 96 32 3f
       0.023062903 0.54416585 0.11326974 0.69761467
000150 66 21 da 3e a3 b8 32 bd f0 b9 38 3f f3 e3 2a 3e
       0.42603606 -0.043633115 0.7215872 0.16688518
000160 6a 18 8a be 74 d6 c1 bc a9 85 d7 3e 4a d4 db 3e
       -0.2697175 -0.02366183 0.42094162 0.429354
000170 32 f7 b6 be 71 b5 33 3f 02 13 40 bd fb fc 31 3e
       -0.3573547 0.7019873 -0.046893127 0.1738166
000180 5e 12 1d be 44 f7 f8 bd 43 c6 0c be e5 ef a0 be
       -0.15339038 -0.12156537 -0.13747506 -0.31433025
000190 a9 09 e5 3e 6f fb ce 3e aa ef da bf b2 4c 2d 3e
       0.44733933 0.40426204 -1.710439 0.16923788
0001a0 7b 63 39 be 5f bd a6 bd 1c 96 88 3e c7 74 07 3f
       -0.18104355 -0.081415884 0.26677024 0.52912563
0001b0 e2 13 c9 bd 94 03 43 bd dd 28 3b be fe e1 97 3e
       -0.098182455 -0.047610834 -0.18277307 0.29664606
0001c0 cc e1 04 3e 8c 43 0d be a2 4f 9c bd d2 e8 4b be
       0.1297676 -0.13795298 -0.07632376 -0.19913033
0001d0 c2 36 84 3c 50 3f 33 3c e2 5e 5e bf a9 0f af be
       0.016139392 0.010940388 -0.8686353 -0.34191635
0001e0 8d bf 19 be 34 10 1d 3f fd 58 73 3e 39 4d 72 3d
       -0.15014477 0.6135285 0.23764415 0.059155677
0001f0 28 01 2e bd 5b 76 a8 3e 44 4d b5 3e 3b b0 ad 3e
       -0.04248157 0.32902798 0.35410511 0.33923516
000200 8f 3f 65 be 44 5b c8 3d 0a 2c f8 3d 6b 06 8a be
       -0.22387527 0.097830325 0.12117775 -0.26958022
000210 0d d6 9b 3f 0e 0d 35 be 90 b0 e7 3d 2e bd 7e be
       1.2174698 -0.17680761 0.113129735 -0.24876854
000220 76 92 00 be 0f 0f 49 3e b5 ca 2b be 7a 20 de 3e
       -0.1255587 0.1963465 -0.16776545 0.43384153
000230 c4 24 23 3f d5 d4 1a 3d b2 a0 36 3f a3 e1 d9 3e
       0.63727975 0.03780063 0.7133895 0.4255496
000240 38 7c 98 bd 70 d7 12 3e 23 40 6c 3f f5 6b 10 be
       -0.07445568 0.14339995 0.92285365 -0.14103682
000250 dc 49 02 3f 75 c1 db bd 65 dc 15 3f 47 b7 22 3e
       0.5089395 -0.107302584 0.5853942 0.15890227
000260 ac f8 7c 3c eb 29 80 3e 88 fc 10 3f 9f ec af bc
       0.015440147 0.2503198 0.5663533 -0.021475134
000270 4e 4a 54 3e fa 0b f7 bd ea 40 6f 3c 12 af 06 bd
       0.2073147 -0.12062831 0.014602879 -0.032881804
000280 a3 b6 9b bd 3a 3b 66 be b6 13 8b 3d f6 11 0c 3f
       -0.076031946 -0.2248353 0.06790869 0.54714906
000290 cd 5d 97 be f4 f0 37 3e 94 43 5b 3f 0e 0c 2a bd
       -0.29563752 0.1796301 0.8564999 -0.041515402
0002a0 e5 e5 bc 3d ee 51 11 be 72 59 ff 3d 61 98 fe 3e
       0.092235364 -0.1419141 0.12468232 0.4972563
0002b0 cf 3d 7c be ce 74 30 3f a9 01 e9 bd 81 b7 b8 3c
       -0.24632953 0.6892823 -0.1137727 0.022548439
0002c0 2f d3 0b 3e f7 34 53 3f 30 11 3e bd 10 df f9 3e
       0.13654779 0.8250269 -0.04640311 0.48802996
0002d0 5b 89 1b bd 39 3f f3 3e 8a c3 57 3f de 35 9f bd
       -0.03797279 0.47509173 0.84282744 -0.07773946
0002e0 e4 0b 19 3f c8 90 65 3e 51 dc 99 3e 25 6b b2 3e
       0.5978377 0.22418511 0.300509 0.3484737
0002f0 2d 3e e4 bd 50 41 5e bd 0e f8 b7 3e 44 2c be 3e
       -0.111446716 -0.054261506 0.35931438 0.37143147
000300 a5 e6 f2 3d 0c 42 9a 3e 41 95 ec 3c 0a c7 cd 3e
       0.11860398 0.30128515 0.028879764 0.40190917
000310 a4 10 bd bf d4 4b 74 3d 1a 94 28 be 58 a3 8b 3f
       -1.4770703 0.059642628 -0.16462746 1.0909224
000320 5d 7e e5 3d ea 6e 2a 3f 0f 80 89 3e 42 8f 49 3f
       0.112057425 0.6657549 0.26855513 0.7873422
000330 c3 0e b4 3d c6 bc 8c 3f 5e 76 a5 3c bc 37 03 3f
       0.08791878 1.0995109 0.020198043 0.5125692
000340 b4 11 92 bd 77 9c 58 3f 43 b4 91 3e 98 1a 56 3f
       -0.07132283 0.84613746 0.2845784 0.8363433
000350 62 e8 1b 3f 06 01 19 3e 54 be 5d 3f 25 b6 84 bd
       0.60901463 0.14941797 0.8661854 -0.06480054
000360 cf 59 60 3c 00 57 23 bd 0e ed 62 3f 09 6e 98 3f
       0.013693287 -0.03987789 0.88642967 1.190858
000370 27 38 2e be ec 8b 5d 3f 54 c8 4f bd 60 cb f2 bb
       -0.17013608 0.8654163 -0.050728157 -0.007409498
000380 13 da 09 be 2a cf 82 3e 39 93 a6 bd 40 42 ad 3d
       -0.13462095 0.2554868 -0.08133549 0.08459902
000390 aa 9e 6a 3f 56 01 e3 3e a7 f5 cb bf 7d 51 88 bd
       0.9164835 0.44336957 -1.5934342 -0.06656168
0003a0 da 3b 99 3d 68 98 65 be c3 3f 48 3f 17 ef 33 3f
       0.07482119 -0.2242142 0.7822229 0.702867
0003b0 93 61 ba bc 84 4c a5 3e 84 cb c2 3e 1c 71 8f 3d
       -0.022751605 0.3228494 0.38045895 0.07003996
0003c0 39 56 09 be 7a 1b 34 3e ca d4 33 3c 76 97 b0 3e
       -0.13411798 0.17588606 0.010976026 0.34490556
0003d0 48 b6 ea bd 30 17 73 3f 3e 23 14 3d 8e 23 3f be
       -0.11460549 0.94957256 0.036166422 -0.18665907
0003e0 86 db 1c 3e d7 cc 81 3f 8f f1 7f 3f f2 a4 fb 3d
       0.15318117 1.0140637 0.99977964 0.1228732
0003f0 a6 8f 17 be e1 f1 8b 3f d8 27 b4 3d f1 46 74 3f
       -0.14800891 1.093319 0.08796662 0.9542075

bias f4 [64]
000000 00 00 00 00 a3 c1 0d 3e 88 8b 6d 3e 72 cc d3 3e
       0.0 0.13843398 0.23197758 0.41366917
000010 6f 67 dc 3e 00 00 00 00 b5 a0 96 3e 00 00 00 00
       0.43047664 0.0 0.29419485 0.0
000020 a1 ae a1 3e 00 00 00 00 00 00 00 00 00 00 00 00
       0.31578544 0.0 0.0 0.0
000030 00 00 00 00 a6 28 a3 3e 09 a2 a5 bc 00 00 00 00
       0.0 0.3186695 -0.020218866 0.0
000040 cf b6 4d 3e e2 46 4b bc ca 43 34 3e f1 0d 66 3e
       0.20089267 -0.0124070365 0.17603984 0.22466256
000050 00 00 00 00 ab a6 a9 bc ba 26 5d 3e 60 40 c6 3e
       0.0 -0.020709356 0.21596804 0.3872099
000060 99 b1 5e 3e 5a b0 cf 3e 51 70 43 3e b4 c1 a4 bb
       0.21747436 0.40564233 0.19085814 -0.005027974
000070 14 da ad 3e 0e de 89 3e 00 00 00 00 cc b4 aa 3e
       0.33955443 0.26927227 0.0 0.33341062
000080 00 00 00 00 00 00 00 00 46 df 56 3f d5 1c af 3e
       0.0 0.0 0.8393444 0.34201685
000090 88 3c b9 3e 8c 12 83 3e 71 47 d2 3e c6 e9 5c 3e
       0.36178994 0.25600088 0.4107013 0.21573552
0000a0 1a 41 4d bc 5a 1b ac 3e 10 5a a2 3e 00 00 00 00
       -0.012527728 0.33614618 0.31709337 0.0
0000b0 6b 65 af 3e 00 00 00 00 7f 79 01 3f 67 df 46 3e
       0.34257063 0.0 0.50576013 0.19421159
0000c0 1e 7c ef 3e af 4c bf 3e 38 a1 d8 3e 00 00 00 00
       0.4677438 0.37363192 0.423105 0.0
0000d0 38 fb 39 3e f3 d4 b9 3e ab dd 3c 3e 00 00 00 00
       0.18162239 0.3629528 0.18443935 0.0
0000e0 9d 7d 09 3f 00 00 00 00 bc 12 88 3e 71 80 9d 3e
       0.53707296 0.0 0.26576793 0.30762056
0000f0 07 4c 4e 3e f8 4b 23 3e f1 70 17 3e 00 00 00 00
       0.2014619 0.15946949 0.14789177 0.0

weight f4 [2, 64]
000000 f5 c8 37 ba 50 f9 d0 3e 4a a5 8a 3c bd f2 8d 3e
       -0.0007010841 0.4081521 0.01692452 0.27724257
000010 f6 c8 91 3e b2 11 dc b8 e7 7c c3 3e fe 6d e4 39
       0.28473634 -0.000104937135 0.3818123 0.000435695
000020 7b 4a 5f 3d ae 33 cb 39 a0 c0 df ba ab 17 d4 ba
       0.05451439 0.00038757682 -0.0017070957 -0.001618137
000030 4a 80 84 3a 27 c8 82 3e 7c 55 6d 3c 37 94 1e ba
       0.0010109034 0.2554333 0.014485713 -0.00060493074
000040 56 db e1 3c 00 40 50 bc f5 ba a7 3e 0f 31 55 3d
       0.027570408 -0.012710571 0.32759824 0.05204874
000050 84 e7 62 3a 2e bb 9f bb 35 d3 e5 3a 3b ab a1 3e
       0.00086557143 -0.0048746085 0.0017534258 0.3157595
000060 63 af d1 3b 02 8e 98 3e 6b 74 83 3e 9a 60 86 3b
       0.0063990816 0.29795843 0.25674757 0.0041008713
000070 40 a5 83 3e cd db a3 3e 4a 69 72 3a 97 09 b8 3e
       0.25712013 0.32003632 0.00092472567 0.35944816
000080 6a 35 e2 39 c0 71 f3 3a 00 ee 6d 3e e0 23 5d 3d
       0.00043145876 0.0018573329 0.23235321 0.05398929
000090 c0 07 3c 3d 88 74 86 3e 3b e7 90 3e 36 29 83 3e
       0.04590583 0.2626078 0.28301415 0.2561738
0000a0 82 18 70 38 74 4b 89 3d 47 f2 b5 3d 40 9b ef b9
       5.7243284e-05 0.06703845 0.08884101 -0.00045701303
0000b0 9e c9 f8 3d 79 b9 67 3a 36 dd 75 3e 6a 7c 92 3e
       0.121478304 0.0008839588 0.24010167 0.28610545
0000c0 7d 26 fd 3d 8b 41 57 3e ee 4b 83 3d 09 cc 21 37
       0.12360857 0.21021096 0.06410967 9.643853e-06
0000d0 6c 1b 56 bc 46 0b 93 3e 27 8c 06 bb e8 81 82 3a
       -0.013068061 0.28719538 -0.0020530315 0.0009956928
0000e0 53 3b 82 3e 48 b3 18 bb 4d 11 94 3e e3 a6 bd 3e
       0.25435886 -0.002330022 0.2891945 0.37041387
0000f0 42 b1 a8 3e ac 9b c9 3e 92 31 ad 3e a7 ba 2c 3a
       0.32947737 0.3937658 0.33826882 0.00065890927
000100 5c 27 90 b9 62 7a 19 bb 39 6c af 3e d0 6a 04 3e
       -0.00027495145 -0.0023418893 0.34262255 0.1293137
000110 4f 3b 24 3e 6b f4 37 ba 6e fe 30 3d 12 40 3b ba
       0.1603825 -0.0007017317 0.043211393 -0.0007143031
000120 57 a3 bb 3e 5d 82 08 3a 19 20 02 ba d3 44 29 bb
       0.36648056 0.0005207414 -0.00049638894 -0.0025828376
000130 4d d7 bf ba 99 a5 0f 3e 99 cf 6d bc de 27 ce 3a
       -0.0014636308 0.14028014 -0.014514827 0.0015728434
000140 31 b3 b8 3e b0 e2 57 3c 8e 0c 90 3d 16 85 96 3e
       0.36074212 0.013176605 0.070336446 0.29398412
000150 00 3d 69 ba 2e b9 ef 3b 9a 02 c6 3e 72 bf 04 3e
       -0.00088973343 0.0073157763 0.3867386 0.12963656
000160 62 41 b0 3e 9e 96 0e 3e 07 a1 d8 3d b7 fe 54 bb
       0.34424883 0.13924643 0.105775885 -0.0032500455
000170 3a 88 19 3e 88 90 b4 3d 2a 06 e5 ba 11 3f 85 3d
       0.14993373 0.0881663 -0.001747315 0.065061696
000180 7d 10 2e bb ef 08 a3 b8 4e 25 2a 3e 83 31 a3 3e
       -0.002656012 -7.77411e-05 0.16615793 0.31873712
000190 c5 72 af 3e f9 ae 0d 3e 69 df 27 3e d0 14 0e 3e
       0.3426725 0.13836278 0.16393818 0.13875127
0001a0 74 0e 4f 3a 4b 86 ac 3e 6a 45 b2 3e fe 3c ab 3a
       0.0007898577 0.33696207 0.34818584 0.0013064442
0001b0 07 e9 a6 3e 7d 35 e2 ba da 99 51 3e 90 8b bf 3d
       0.3259966 -0.0017258372 0.20468846 0.09352791
0001c0 3a fd 8f 3e 7e e5 3d 3e fe 1e ad 3e ab 4a 26 ba
       0.28122884 0.18544576 0.33812708 -0.0006343524
0001d0 5b 49 bc 3e 6e dd 11 3e 33 ac b2 3e 20 81 8d b9
       0.36774716 0.14244625 0.34897003 -0.0002698982
0001e0 48 ed 5c 3e 6c dd 57 bb 8e 84 ea 3d 1d 08 66 3d
       0.2157489 -0.0032938374 0.11451064 0.05616008
0001f0 0e 85 81 3d c0 3c 04 bc 33 22 7a 3d 69 07 f0 ba
       0.06324206 -0.008071125 0.06106777 -0.0018312755

bias f4 [2]
000000 50 de 89 3f ea 8d ef 3d
       1.0770969 0.1169699

weight f4 [1, 64]
000000 d5 9d 80 3e e2 dc 62 bd 49 a1 e2 3d 3c ae 5b 3c
       0.25120416 -0.05538643 0.11065919 0.01340824
000010 78 96 0f bd 06 9a fa 3d ce 00 73 3d b6 96 1e 3e
       -0.035055608 0.12236409 0.05932694 0.15487179
000020 a9 21 2f bc 8b a2 12 be f7 3b 55 be 17 de 8e 3e
       -0.010689178 -0.14319818 -0.20823656 0.27903816
000030 ad f0 8f 3e 3d 8b 17 be 84 f7 dc bd f4 b4 ce 3c
       0.2811331 -0.14799209 -0.10789397 0.02523277
000040 3d ae 90 3e 04 a8 4a 3e 01 3d c5 be ec a5 48 bd
       0.28257933 0.19790655 -0.38523105 -0.04898636
000050 bc 46 ce 3a f0 08 31 be 10 f0 a0 3e 9a 61 81 3c
       0.0015737633 -0.17288566 0.31433153 0.01579361
000060 c8 41 08 3e c1 aa 85 3c 8a d6 de be 88 89 83 3d
       0.13306344 0.016316773 -0.43523055 0.064227164
000070 43 bb d3 bd 6f 8d d7 bd 4d ad da bd 3d 9b 85 3d
       -0.10338452 -0.10525023 -0.10677586 0.0652375
000080 81 50 99 bd ed e8 60 3d 68 ca f2 3e 99 f1 b1 bd
       -0.07486058 0.054909635 0.4742005 -0.08688659
000090 56 c2 1a bb c4 a9 91 be eb 34 64 bb 6f a9 b5 be
       -0.0023614368 -0.28449833 -0.003482158 -0.3548083
0000a0 e2 b9 04 3e a9 a8 60 bc b4 13 5c 3e 0d 80 6a bd
       0.12961534 -0.013712087 0.21491891 -0.057251025
0000b0 9a 8f b5 3d 90 ad 98 bd 8a 4e 2b 3e cf 14 ab be
       0.088652804 -0.074549794 0.16729179 -0.33414313
0000c0 fd 96 9e bc 96 90 2d be 71 11 2a be 3d 25 b2 3e
       -0.019359106 -0.16949686 -0.16608216 0.34794036
0000d0 96 d9 ce 3e 4c a2 0a 3e a1 92 22 3e 21 6a 66 3d
       0.4040038 0.13538474 0.15876247 0.056253556
0000e0 9c f8 b6 bb 54 d2 31 3e 44 45 3e be bc aa 7a 3d
       -0.0055838358 0.1736539 -0.1858111 0.06119798
0000f0 84 59 6b be c3 c2 57 be 8c 78 9e be 9e 9f b7 bc
       -0.22983366 -0.2107039 -0.30951345 -0.022414979
