models/reinforce_simple_model.pth (torch, 23049 bytes, 6 tensors)

weight f4 [64, 3]
-0.10449923 0.005580569 -0.098536335 -0.10322102 0.05127029 -0.2726347 -0.2796074 -0.1750359
-0.032811154 0.31208846 0.044992972 0.020847315 -0.10979429 -0.041276105 0.2792665 0.16176802
-0.066670746 0.20321916 0.153632 0.1884503 0.09471303 0.19291778 -0.41373962 -0.1982439
-0.10222172 -0.15899096 -0.259618 -0.07449204 -0.07327777 0.02396099 -0.18823339 -0.20382653
-0.056351695 0.24442682 0.25067952 -0.1917829 -0.18190579 -0.18403743 0.051274218 -0.10446686
-0.05643846 0.08171147 0.20533556 -0.15839547 0.072100975 0.0291666 0.083459355 0.43898502
-0.058810502 0.30774516 0.055556715 -0.00047526395 -0.017345374 0.33715752 -0.047653995 -0.08136694
-0.19978729 -0.113099925 -0.007076815 -0.1527646 0.2506909 -0.064177305 -0.095706806 0.23492952
0.24143651 0.08529277 -0.012732348 0.28863564 0.15894751 0.35940203 -0.036726333 0.08277049
-0.21955973 0.027601052 0.15846038 -0.21734221 -0.0053365123 -0.27876008 -0.2772676 -0.139487
0.029610753 0.24823062 0.12104126 -0.121794656 0.046228953 0.55737126 -0.23133503 -0.017525349
0.002224417 -0.04760215 -0.0822449 0.033790726 -0.054949347 0.13314845 0.19297282 0.026357345
-0.1447019 -0.15036266 -0.00064979243 0.17476688 -0.18420859 -0.20482112 -0.21381232 -0.343883
0.10648418 0.109483644 0.27666673 -0.023498109 0.021431442 -0.3014947 -0.012773982 -0.16228412
-0.13947949 0.07887946 -0.08614393 -0.39084104 0.014414022 -0.34989032 -0.15932408 -0.04134096
-0.22789517 0.39180237 -0.10823799 -0.06960221 -0.014483776 -0.05232362 -0.17485411 0.008833115
0.37974727 -0.13818637 0.06626212 0.07921198 0.123274736 0.007344567 0.32116368 -0.11582127
0.031126775 0.055912457 0.47229764 0.050824653 0.059623428 0.1203165 -0.20903076 -0.14154801
0.0025076382 -0.105518214 -0.061361123 0.20404325 -0.34107175 0.24604014 0.25554177 -0.067817256
-0.17050678 0.15509427 0.056501415 0.4648388 -0.024773588 0.25555566 -0.057235297 0.20917311
0.080953404 0.057765327 0.07105512 0.19270757 0.29227546 0.21422577 -0.009751676 -0.021557696
0.20425169 -0.21782722 -0.14627507 0.043043822 -0.088650934 -0.26253936 0.25903174 0.03198334
-0.2536629 0.13670687 0.004218133 0.17635506 0.05345354 0.1474248 -0.066276 0.09279136
-0.30158547 0.0642536 -0.035528634 -0.119181074 -0.1277166 -0.4578995 -0.023914877 -0.09670765
00000000: b103 d6bd 35dd b63b 6bcd c9bd 8b65 d3bd
00000010: cc00 523d c796 8bbe b328 8fbe 9c3c 33be
00000020: fd64 06bd 0fca 9f3e 8d4a 383d fdc7 aa3c
00000030: d4db e0bd 2211 29bd 05fc 8e3e 84a6 253e
00000040: ac8a 88bd af18 503e b551 1d3e 1ef9 403e
00000050: e8f8 c13d 3d8c 453e aed5 d3be 7300 4bbe
00000060: 9f59 d1bd 87ce 22be a7ec 84be 488f 98bd
00000070: a812 96bd d749 c43c 41c0 40be e7b7 50be
00000080: 09d1 66bd 064b 7a3e 1159 803e bd62 44be
00000090: 8345 3abe 4f74 3cbe ea04 523d b9f2 d5bd
000000a0: 042c 67bd 5858 a73d 7c43 523e 6c32 22be
000000b0: ada9 933d cbee ee3c bdec aa3d a5c2 e03e
000000c0: 48e3 70bd c690 9d3e 708f 633d d92c f9b9
000000d0: e317 8ebc e99f ac3e d630 43bd b6a3 a6bd
000000e0: 0a95 4cbe efa0 e7bd a0e4 e7bb 536e 1cbe
000000f0: 8f5a 803e 646f 83bd ee01 c4bd 5d91 703e
00000100: 223b 773e faad ae3d 579b 50bc 0dc8 933e
00000110: 23c3 223e 8b03 b83e 5a6e 16bd 9383 a93d
00000120: 44d4 60be 9a1b e23c 7043 223e f58e 5ebe
00000130: e9dd aebb a4b9 8ebe 05f6 8dbe aed5 0ebe
00000140: 4092 f23c 2b30 7e3e 7be4 f73d 7a6f f9bd
00000150: 925a 3d3d e2af 0e3f 17e3 6cbe 5291 8fbc
00000160: 86c7 113b 79fa 42bd 0470 a8bd 2568 0a3d
00000170: 9112 61bd 1158 083e ab9a 453e 5ceb d73c
00000180: bc2c 14be abf8 19be d556 2aba 17f6 323e
00000190: 2da1 3cbe a1bc 51be 9ef1 5abe 6f11 b0be
000001a0: 6114 da3d f638 e03d 43a7 8d3e 1b7f c0bc
000001b0: fe90 af3c 835d 9abe f749 51bc cf2d 26be
000001c0: b6d3 0ebe 8e8b a13d 3b6c b0bd 511c c8be
000001d0: ca28 6c3c d324 b3be da25 23be 2355 29bd
000001e0: 5a5d 69be 529a c83e e1ab ddbd 9a8b 8ebd
000001f0: 5c4d 6dbc 4b51 56bd f50c 33be c5b8 103c
00000200: 3c6e c23e ba80 0dbe 6fb4 873d e439 a23d
00000210: 7777 fc3d b2aa f03b 916f a43e b433 edbd
00000220: 94fd fe3c 7604 653d ffd0 f13e 832d 503d
00000230: b237 743d 7f68 f63d 290c 56be f6f1 10be
00000240: 3057 243b ef19 d8bd cd55 7bbd b7f0 503e
00000250: f5a0 aebe f2f1 7b3e 5fd6 823e c6e3 8abd
00000260: 5499 2ebe 08d1 1e3e 076e 673d 5aff ed3e
00000270: fbf1 cabc 31d8 823e 8f6f 6abd 7a31 563e
00000280: e6ca a53d 569b 6c3d 5985 913d 2255 453e
00000290: 21a5 953e 005e 5b3e 7ec5 1fbc c499 b0bc
000002a0: 5b27 513e 190e 5fbe 22c9 15be b84e 303d
000002b0: 9f8e b5bd 8f6b 86be cf9f 843e f600 033d
000002c0: 1be0 81be e3fc 0b3e 4438 8a3b 6c96 343e
000002d0: 19f2 5a3d 87f6 163e b6bb 87bd 6609 be3d
000002e0: 6969 9abe 6497 833d 7986 11bd 3515 f4bd
000002f0: 24c8 02be ce71 eabe 22e9 c3bc a90e c6bd

bias f4 [64]
0.0 0.0 0.0 0.040320773 -0.026261698 0.038871087 0.036412768 0.0
0.0 0.0 0.0 0.044289082 0.0 0.0 -0.03584068 0.04137372
0.03762766 -0.043585222 0.0 0.0 0.035789587 0.03767268 0.03581758 0.043871164
-0.009744881 0.0 0.0 0.036905248 0.03807898 0.0 0.0 0.034715824
0.0 0.0 0.0 0.042959467 0.0 0.0 0.0 0.0
0.030888481 0.0 0.008786346 -0.018549185 0.03929222 -0.00084240705 0.034338873 0.0
0.0 -0.020192293 0.03482511 0.035525523 0.042705007 0.034430195 0.041585676 0.04036251
0.0 0.0 0.043206956 0.036928404 0.03608603 0.0 0.0 0.0
00000000: 0000 0000 0000 0000 0000 0000 6527 253d
00000010: c622 d7bc 4a37 1f3d 8e25 153d 0000 0000
00000020: 0000 0000 0000 0000 0000 0000 7868 353d
00000030: 0000 0000 0000 0000 adcd 12bd 7d77 293d
00000040: 761f 1a3d 6b86 32bd 0000 0000 0000 0000
00000050: 1a98 123d ab4e 1a3d 74b5 123d 40b2 333d
00000060: fea8 1fbc 0000 0000 0000 0000 f529 173d
00000070: b4f8 1b3d 0000 0000 0000 0000 2e32 0e3d
00000080: 0000 0000 0000 0000 0000 0000 44f6 2f3d
00000090: 0000 0000 0000 0000 0000 0000 0000 0000
000000a0: d709 fd3c 0000 0000 9bf4 0f3c 76f4 97bc
000000b0: e1f0 203d fbd4 5cba eba6 0c3d 0000 0000
000000c0: 0000 0000 4f6a a5bc c6a4 0e3d 3683 113d
000000d0: 72eb 2e3d ad06 0d3d be55 2a3d 2953 253d
000000e0: 0000 0000 0000 0000 c7f9 303d 3d42 173d
000000f0: f2ce 133d 0000 0000 0000 0000 0000 0000

weight f4 [64, 64]
-0.0638137 -0.18788683 0.14669329 0.03946373 -0.4857 -0.13726424 -0.009951815 -0.04398202
0.120415315 -0.14323264 0.1441324 0.20681807 -0.13121629 -0.060437556 -0.103447065 0.4091223
0.0096278405 0.012256543 0.07638376 0.007829662 -0.21623029 0.18180934 -0.21064088 -0.034870967
-0.16735409 -0.064497985 0.09667234 0.4638241 0.07467104 0.27615207 0.1676079 0.38178232
0.0752268 -0.0016028867 -0.11998902 0.23146021 0.12123017 -0.21976098 0.29818007 0.014494596
-0.052021764 -0.078739636 -0.07192337 -0.022191599 -0.13891077 0.054468643 -0.1619348 0.11641349
0.038043167 0.18285523 -0.13135736 -0.04047588 0.10997033 0.0052169324 0.16237509 -0.3170944
0.031994704 -0.011710175 -0.23857002 -0.10553933 0.18970865 0.331325 -0.19278875 -0.03649801
0.114146635 0.0192193 -0.106970206 0.48084947 -0.020730788 -0.14192909 -0.27842748 -0.1053006
-0.04849569 0.11738409 -0.0024062202 -0.043868903 0.06324757 -0.10084125 0.15787277 -0.072290234
0.2623278 0.14809242 -0.2215759 0.099045694 0.08102461 0.0738847 0.23649393 -0.23601183
0.22380511 0.19976556 0.022348808 0.053316604 -0.19137055 0.08467665 0.20395395 0.14534795
-0.02403661 0.045982707 -0.011807313 -0.33673114 0.26380733 -0.2092673 -0.124161124 -0.06723593
0.38012704 -0.2314084 0.224091 0.09119791 -0.11005973 -0.006806058 -0.3148425 -0.21164356
0.053256724 -0.0924926 -0.009888006 -0.025931971 0.075478464 -0.23174635 -0.24850431 0.13294369
0.22143212 -0.04711633 -0.26511616 0.060909137 -0.11691021 0.04220506 -0.32511994 -0.19905265
-0.13985366 -0.19621688 -0.121462494 0.23944075 -0.10583213 0.063000664 -0.07630551 0.23504597
-0.10494837 0.08757718 -0.18376733 -0.27812392 -0.32505706 -0.0021817514 -0.036038585 0.12462225
0.0038634685 0.10664423 0.3323625 0.08273292 -0.08890778 -0.062762454 -0.011542135 0.104265876
0.4119418 -0.11580588 0.22061901 0.018464988 -0.2678269 -0.2118842 0.0016154649 0.33839852
-0.15009953 0.117300324 0.20381859 -0.18245068 0.28495428 0.012580634 -0.01626455 0.21525906
0.0013474495 0.099435665 -0.014201907 0.059973028 -0.15988009 -0.20597081 0.24771294 0.11563307
0.05519773 0.28138965 0.29279748 -0.17717247 0.00035755173 -0.027715322 -0.036972173 -0.16507137
-0.34266078 -0.09068922 0.18859652 -0.26990005 -0.20153552 -0.14528073 0.037493676 0.12162346
-0.16158208 -0.15206818 -0.006465844 0.09492817 0.13541053 -0.11297913 0.40390345 -0.38171238
0.044789918 -0.20157024 -0.0121366065 0.19050331 0.027621279 -0.075936146 -0.47989127 -0.2554697
0.026011216 0.08162975 -0.04933153 0.28648007 0.16766451 0.0063440963 0.012807319 0.06970754
0.09503107 -0.049622066 -0.25256523 0.08793488 -0.16724055 -0.06945687 0.07547268 -0.062694065
-0.18689379 -0.036017876 -0.26836067 -0.056824397 0.074819505 0.2606523 0.29324812 0.18531756
0.015026071 -0.30987412 0.07289085 0.049582817 -0.02537212 0.098632514 0.1311797 -0.08656419
-0.014281981 0.20064366 0.112066746 -0.05385919 -0.032846402 0.21473226 0.081398286 -0.1017038
-0.15114121 -0.4721904 -0.14918101 0.28776324 0.052521776 -0.17730778 -0.06546407 -0.18133318
00000000: c2b0 82bd 6865 40be c436 163e b8a4 213d
00000010: acad f8be ff8e 0cbe f00c 23bc 7e26 34bd
00000020: 4e9c f63d 94ab 12be 7297 133e 1ec8 533e
00000030: 905d 06be 5f8d 77bd 0edc d3bd 7a78 d13e
00000040: 17be 1d3c abcf 483c 176f 9c3d fc47 003c
00000050: 796b 5dbe 3a2c 3a3e 3eb2 57be dcd4 0ebd
00000060: df5e 2bbe 8517 84bd 26fc c53d 5a7a ed3e
00000070: 21ed 983d ce63 8d3e 68a1 2b3e f978 c33e
00000080: 8210 9a3d f417 d2ba cebc f5bd e803 6d3e
00000090: 8647 f83d 0609 61be 0fab 983e be7a 6d3c
000000a0: c614 55bd 3f42 a1bd 8f4c 93bd 28cb b5bc
000000b0: a03e 0ebe 831a 5f3d 3cd2 25be 326a ee3d
000000c0: 27d3 1b3d 673e 3b3e 8b82 06be 09ca 25bd
000000d0: 2038 e13d cdf2 aa3b a845 263e 325a a2be
000000e0: e10c 033d 09dc 3fbc b34b 74be 0125 d8bd
000000f0: fc42 423e 6ea3 a93e 6a6a 45be f07e 15bd
00000100: b6c5 e93d cb71 9d3c 3213 dbbd e731 f63e
00000110: 9dd3 a9bc dc55 11be 0c8e 8ebe d7a7 d7bd
00000120: 6ba3 46bd 1267 f03d adb1 1dbb e1af 33bd
00000130: f187 813d db85 cebd 66a9 213e e70c 94bd
00000140: d44f 863e 8aa5 173e cbe4 62be 78d8 ca3d
00000150: 3bf0 a53d dd50 973d 772b 723e 16ad 71be
00000160: 2b2d 653e 588f 4c3e d914 b73c 8362 5a3d
00000170: a4f6 43be f46a ad3d 4ed9 503e 18d6 143e
00000180: 6de8 c4bc 5d58 3c3d 7673 41bc 0668 acbe
00000190: c111 873e 2b4a 56be 3048 febd feb2 89bd
000001a0: 03a0 c23e 53f6 6cbe 1c78 653e f8c5 ba3d
000001b0: ff66 e1bd 5a05 dfbb 0933 a1be 17b9 58be
000001c0: b923 5a3d c36c bdbd 4e01 22bc 496f d4bc
000001d0: 7494 9a3d ea4e 6dbe ea77 7ebe 6422 083e
000001e0: 1abf 623e 0efd 40bd 4ebd 87be dc7b 793d
000001f0: 9f6e efbd 37df 2c3d 1f76 a6be 75d4 4bbe
00000200: cc35 0fbe 14ed 48be 54c1 f8bd f52f 753e
00000210: 84be d8bd 7e06 813d 1046 9cbd e4af 703e
00000220: 2cef d6bd aa5b b33d 812d 3cbe 4266 8ebe
00000230: e16d a6be b7fb 0ebb 329d 13bd f339 ff3d
00000240: 3f32 7d3b 4a68 da3d 6b2b aa3e e16f a93d
00000250: 4815 b6bd 9a89 80bd 391b 3dbc 5989 d53d
00000260: 09ea d23e a22b edbd f3e9 613e e343 973c
00000270: 9c20 89be 2cf8 58be 02be d33a 9242 ad3e
00000280: b1b3 19be 273b f03d d2b5 503e 5ad4 3abe
00000290: 87e5 913e 011f 4e3c 3c3d 85bc df6c 5c3e
000002a0: e79c b03a eda4 cb3d 1eaf 68bc 47a6 753d
000002b0: 9bb7 23be 03ea 52be 76a8 7d3e 08d1 ec3d
000002c0: 0417 623d 4e12 903e 8de9 953e b36c 35be
000002d0: c875 bb39 3e0b e3bc 2270 17bd 7808 29be
000002e0: 3c71 afbe 45bb b9bd 721f 413e 5730 8abe
000002f0: 545f 4ebe 79c4 14be f892 193d b815 f93d
00000300: c675 25be c3b7 1bbe 6edf d3bb b369 c23d
00000310: 0fa9 0a3e 9a61 e7bd 6fcc ce3e ce6f c3be
00000320: a275 373d 6e68 4ebe 9ed8 46bc 4d13 433e
00000330: 0546 e23c 6984 9bbd 4fb4 f5be edcc 82be
00000340: 7915 d53c 802d a73d dc0f 4abd 84ad 923e
00000350: 3fb0 2b3e 23e2 cf3b cad5 513c d4c2 8e3d
00000360: a69f c23d 8240 4bbd 3b50 81be 3417 b43d
00000370: 1b41 2bbe 673f 8ebd 6c91 9a3d bf65 80bd
00000380: 1661 3fbe 7b87 13bd 9266 89be b3c0 68bd
00000390: f83a 993d 3874 853e 9e24 963e e3c3 3d3e
000003a0: e92f 763c d2a7 9ebe cc47 953d 5a17 4b3d
000003b0: 31d9 cfbc d8ff c93d f953 063e 9148 b1bd
000003c0: f8fe 69bc 8875 4d3e 4083 e53d 749b 5cbd
000003d0: f389 06bd c6e2 5b3e 25b4 a63d 154a d0bd
000003e0: c3c4 1abe f1c2 f1be e8c2 18be b455 933e
000003f0: 1321 573d 2c90 35be 0712 86bd 68af 39be

bias f4 [64]
0.039788775 0.0 -0.01202135 0.027533785 -0.005483792 0.0 0.0 0.043656003
0.042581894 0.0358417 0.037999645 0.0 0.04308625 0.0 0.042287752 0.0
0.034504175 -0.0061310413 0.0 0.041509453 0.035836205 0.036469422 0.041876577 0.023277879
0.034602296 0.0 -0.007815161 -0.011252235 0.035934538 0.041796613 0.032597627 0.0
0.0 0.039520405 0.0 -0.006283672 0.021493608 0.04214518 0.035722297 0.036629718
0.030226056 0.0 0.0 0.0 0.0320888 0.042053774 0.041960686 0.040972512
0.03505835 0.04014809 0.0 0.0 0.0 0.04299359 0.024168123 0.0
0.034164503 0.04168086 0.038057517 0.038314436 0.0 0.035321604 -0.008563347 -0.0076633827
00000000: 8ef9 223d 0000 0000 32f5 44bc 888e e13c
00000010: 62b1 b3bb 0000 0000 0000 0000 a3d0 323d
00000020: 5a6a 2e3d bfce 123d 84a5 1b3d 0000 0000
00000030: 357b 303d 0000 0000 ec35 2d3d 0000 0000
00000040: 4054 0d3d e7e6 c8bb 0000 0000 d105 2a3d
00000050: fcc8 123d f660 153d c686 2b3d 40b1 be3c
00000060: 23bb 0d3d 0000 0000 290b 00bc 4b5b 38bc
00000070: 1830 133d ed32 2b3d 1785 053d 0000 0000
00000080: 0000 0000 26e0 213d 0000 0000 43e7 cdbb
00000090: 5d13 b03c 6da0 2c3d 8b51 123d 0b09 163d
000000a0: a29c f73c 0000 0000 0000 0000 0000 0000
000000b0: 8c6f 033d 9440 2c3d f8de 2b3d cbd2 273d
000000c0: 5899 0f3d 5372 243d 0000 0000 0000 0000
000000d0: 0000 0000 0c1a 303d 3afc c53c 0000 0000
000000e0: 14f0 0b3d 8db9 2a3d 33e2 1b3d 99ef 1c3d
000000f0: 0000 0000 63ad 103d 484d 0cbc 1d1d fbbb

weight f4 [2, 64]
0.054198284 0.003063121 0.004863281 0.038927376 0.0025291378 0.0002631385 -0.0011845473 0.048544284
0.05013459 0.044851843 0.044105716 -0.001752466 0.045662284 0.0011372913 0.048505645 -0.00079975586
0.04881367 0.00075567886 -0.00050229696 0.049609806 0.04278305 0.031050665 0.047403276 0.022698365
0.048719984 -0.0005246928 -0.0021322328 -0.0013173635 0.046647232 0.043671697 0.048301525 -0.0021170746
-0.00025785115 0.048070844 -0.00014550795 -0.0012059502 0.022013154 0.046609767 0.044503376 0.049774233
0.044526767 -0.0019369248 0.00080047373 -0.0008758392 0.04292568 0.052121785 0.05099705 0.046508327
0.04842139 0.044501465 0.0023922785 0.0001606608 0.002263773 0.038737424 0.019557687 -0.00048080587
0.04369257 0.05117414 0.046102487 0.04859535 0.00012947185 0.04482116 0.002175974 -0.0035484522
-0.021684462 -0.0005323243 -0.00470881 -0.011140746 -0.0025691665 -0.0008542964 -0.00027402907 -0.02157966
-0.019387484 -0.015108844 -0.012206573 9.539142e-05 -0.015743632 0.0018069576 -0.0198076 0.00057701906
-0.017717823 -0.00027570387 0.0009976096 -0.02129417 -0.017629622 -0.0068562627 -0.019531224 -0.005353899
-0.018724421 -0.001989614 -0.00085922034 0.0036536113 -0.020674711 -0.01733097 -0.01574672 -0.00027653607
-0.00022859474 -0.020482276 -0.0001172196 0.00050507684 -0.0013285184 -0.018572705 -0.016846614 -0.0184011
-0.016989483 0.0010237079 -0.0028042383 0.0018600423 -0.017579218 -0.020862726 -0.017760027 -0.0217722
-0.022831287 -0.02014436 -0.0002973715 -0.001285124 0.001451601 -0.0132538825 -0.0044203675 -0.0014691997
-0.016780028 -0.020562405 -0.020058958 -0.01623193 0.0019867208 -0.01997696 -0.0015005833 -0.0071225693
00000000: 05ff 5d3d a5be 483b 285c 9f3b 5072 1f3d
00000010: e4bf 253b daf5 8939 d042 9bba 5fd6 463d
00000020: ee59 4d3d 91b6 373d 32a8 343d 00b3 e5ba
00000030: 6008 3b3d 2a11 953a dbad 463d b5a6 51ba
00000040: d8f0 473d c018 463a 94ac 03ba a733 4b3d
00000050: 483d 2f3d f75d fe3c f029 423d ecf1 b93c
00000060: 9b8e 473d 8a8b 09ba eebc 0bbb 62ab acba
00000070: 2b11 3f3d 18e1 323d d2d7 453d 9ebe 0abb
00000080: 3230 87b9 efe5 443d 7e93 18b9 f910 9eba
00000090: ee54 b43c e2e9 3e3d 2c49 363d 11e0 4b3d
000000a0: b361 363d 69e0 fdba e2d6 513a 9398 65ba
000000b0: d6d2 2f3d a77d 553d 48e2 503d 847f 3e3d
000000c0: 8255 463d 2b47 363d c6c7 1c3b 0e77 2839
000000d0: cf5b 143b 22ab 1e3d 7137 a03c ac14 fcb9
000000e0: fbf6 323d fa9b 513d f6d5 3c3d eb0b 473d
000000f0: d6c2 0739 6596 373d c99a 0e3b 268d 68bb
00000100: 9da3 b1bc ae8b 0bba 5c4c 9abb ad87 36bc
00000110: 765f 28bb dcf2 5fba 8fab 8fb9 d4c7 b0bc
00000120: 80d2 9ebc 168b 77bc 14fe 47bc e10c c838
00000130: caf8 80bc 70d7 ec3a 8c43 a2bc 1843 173a
00000140: f824 91bc 598c 90b9 39c2 823a 1c71 aebc
00000150: ff6b 90bc 80aa e0bb f2ff 9fbc c36f afbb
00000160: f563 99bc 2f64 02bb 4d3d 61ba 6d71 6f3b
00000170: 035e a9bc aef9 8dbc 44ff 80bc 0bfc 90b9
00000180: efb2 6fb9 72ca a7bc cbd3 f5b8 2267 043a
00000190: ae21 aeba c925 98bc e901 8abc e7bd 96bc
000001a0: 872d 8bbc f02d 863a 50c7 37bb aacc f33a
000001b0: 4b02 90bc 4fe8 aabc 7a7d 91bc 9d5b b2bc
000001c0: ae08 bbbc c905 a5bc 87e8 9bb9 9b71 a8ba
000001d0: a643 be3a d026 59bc bbd8 90bb 2992 c0ba
000001e0: 4576 89bc 7d72 a8bc af52 a4bc d3f8 84bc
000001f0: a533 023b b9a6 a3bc 38af c4ba 7164 e9bb

bias f4 [2]
1.0425473 -0.020890927
00000000: 3172 853f 7323 abbc
