models/td3_simple_model.pth (torch, 65861 bytes, 15 tensors)

weight f4 [64, 3]
0	0xbccc1c03	-0.0249157
1	0x3e4b4ea2	0.19854215
2	0xbe6b1d41	-0.22960378
3	0xbeaf27a3	-0.34209928
4	0xbd8173f9	-0.06320948
5	0xbdbd07cd	-0.092300035
6	0xbe06e850	-0.13174558
7	0x3d82dabf	0.06389379
8	0x3dd0f5b9	0.10203118
9	0xbdab27b8	-0.08357185
10	0x3db11ba1	0.08647848
11	0x3ec55968	0.38544774
12	0xbe02437f	-0.1272106
13	0x3d5d6ae4	0.054057017
14	0x3d16b6e0	0.036795497
15	0x3d02edf6	0.03196522
16	0x3ea3f6d2	0.32024246
17	0x3e64ffad	0.22363158
18	0x3e2b5f53	0.16735582
19	0xbcd87cf0	-0.026426762
20	0xbdc08697	-0.09400671
21	0xbe3fb893	-0.18722753
22	0x3e7cbf7a	0.24682418
23	0x3e9a05bd	0.30082503
24	0x3e042509	0.12904753
25	0xbdd8d6b5	-0.10587827
26	0x3e06459a	0.13112488
27	0x3e415ae2	0.18882325
28	0x3dab37c3	0.08360245
29	0xbedb6a14	-0.4285437
30	0x3d29cf46	0.041457437
31	0xbe47dc3e	-0.1951761
32	0x3de59205	0.11209492
33	0x3e40095c	0.1875357
34	0xbeaac623	-0.3335429
35	0x3cfbb07c	0.030723803
36	0xbd9a14b0	-0.07523477
37	0x3d019a6c	0.03164141
38	0x3dc557ea	0.09635909
39	0xbd4691fd	-0.04847907
40	0xbd39e5fd	-0.04538535
41	0xbe93630a	-0.28786498
42	0x3ed7f9fe	0.42182916
43	0x3ce003af	0.027345506
44	0xbdcac5fe	-0.09901045
45	0x3d8f5f48	0.07000595
46	0xbd04f012	-0.03245551
47	0xbd81eccf	-0.06343996
48	0x3ed243d5	0.41067377
49	0x3e1b6988	0.15176976
50	0xbea0f695	-0.31438127
51	0x3db0ffdc	0.08642551
52	0x3e278175	0.16357978
53	0x3e2b8a3f	0.16751955
54	0xbda16a5c	-0.078816146
55	0xbccdda34	-0.025128461
56	0xbddc0818	-0.10743731
57	0xbcb92a35	-0.022603134
58	0xbda2f754	-0.0795733
59	0xbdccfc43	-0.100090526
60	0xbb8d3023	-0.004308717
61	0xbbb4262b	-0.005497714
62	0x3e020509	0.12697233
63	0xbdeceb7f	-0.11568355
64	0x3e316cdc	0.17326683
65	0x3d6d8127	0.057984497
66	0xbeb6562e	-0.35612625
67	0xbe5721aa	-0.21008936
68	0xbce39ee1	-0.02778572
69	0x39f686cf	0.00047021217
70	0x3df37c8a	0.11888988
71	0xbe97d411	-0.2965398
72	0x3e5b2ad4	0.21403056
73	0xbd8d2425	-0.0689166
74	0x3cd43cd9	0.02590792
75	0x3e23c408	0.15992749
76	0xbf3b27d9	-0.7310768
77	0x3d70e22f	0.058809455
78	0xbe8777d9	-0.26458624
79	0xbe89ad8f	-0.26890227
80	0x3dcb6b47	0.09932571
81	0xbe002337	-0.12513433
82	0x3e5539c5	0.20822819
83	0x3e1d78c3	0.15378098
84	0x3d5a0bc0	0.053233862
85	0x3c873d76	0.016508799
86	0xbd62c66a	-0.055365004
87	0xbe489f1b	-0.19591944
88	0x3e33e9fd	0.17569728
89	0xbe1c422e	-0.1525962
90	0xbd90e580	-0.07075024
91	0xbe6cbf0f	-0.23119758
92	0xbe3d06d6	-0.18459639
93	0x3cb6cd17	0.022314591
94	0x3e25a005	0.16174324
95	0x3e4d6f89	0.20062079
96	0x3cd7fa19	0.026364373
97	0xbe1ace54	-0.1511777
98	0x3e206da9	0.15666832
99	0xbe07899c	-0.13236088
100	0x3d38572d	0.045005012
101	0x3e93b26a	0.28847057
102	0x3c6a1dd1	0.014289335
103	0xbd10b619	-0.03532991
104	0x3c60dbce	0.0137242805
105	0xbd805fcb	-0.06268271
106	0xbb238631	-0.002495181
107	0xbd01bd26	-0.031674527
108	0x3e794908	0.24344265
109	0x3df43b7f	0.119254105
110	0xbc67569c	-0.01411977
111	0xbe918c9d	-0.28427592
112	0xbc0cd719	-0.008596205
113	0x3a75ef5f	0.00093816774
114	0xbd2f5df0	-0.042814195
115	0xbe89a508	-0.2688372
116	0xbd7a31c2	-0.06108261
117	0xbd60b705	-0.05486204
118	0xbd050ace	-0.032481007
119	0x3ea3bea8	0.31981397
120	0x3dd32416	0.10309617
121	0xbdc2eb0b	-0.09517487
122	0xbcf59157	-0.02997653
123	0x3e5fe81e	0.2186589
124	0xbe7f436a	-0.2492806
125	0x3e5844c0	0.21119976
126	0xbe48c273	-0.19605426
127	0x3dddcaff	0.10829734
128	0x3d51c3fb	0.051212292
129	0x3e02f7d2	0.12789848
130	0xbe0046ed	-0.12527056
131	0xbd1a6111	-0.037690226
132	0xbe867584	-0.26261532
133	0x3de9bacd	0.114125825
134	0xbe890abe	-0.26766008
135	0xbe88a318	-0.2668693
136	0xbd882c46	-0.066490695
137	0x3d641e3b	0.055692893
138	0xbeaa169e	-0.3322038
139	0x3e25f235	0.16205676
140	0xbe658b2e	-0.22416374
141	0xbe21c100	-0.1579628
142	0x3e305dab	0.17223231
143	0xbe0a768d	-0.13521786
144	0x3e9c76ad	0.30559292
145	0xbd824949	-0.06361634
146	0x3da29400	0.07938385
147	0xbc64b5c7	-0.013959355
148	0xbce13226	-0.027489733
149	0x3e214ae7	0.15751229
150	0x3dfe3f8a	0.12414463
151	0x3e20b949	0.1569568
152	0xbe5f7e0c	-0.21825427
153	0xbde08413	-0.10962691
154	0xbe4a5741	-0.19759847
155	0xbe2f9fb2	-0.17150763
156	0xbc16f2b7	-0.009213141
157	0x3e28466f	0.16433118
158	0x3d295401	0.041339878
159	0xbe7b6049	-0.24548449
160	0xbdb18c69	-0.08669359
161	0xbc8f34ef	-0.017481295
162	0xbc805b15	-0.015668431
163	0xbe691acc	-0.22764128
164	0xbd06c386	-0.03290131
165	0xbdd31ae4	-0.10307863
166	0xbe4f6988	-0.202551
167	0x3e2ebc06	0.17063913
168	0x3d3728aa	0.044716515
169	0xbddd7eee	-0.108152255
170	0x3e9dc734	0.30816042
171	0x3cee1a53	0.029065287
172	0x3e43e07b	0.19128601
173	0x3d880edc	0.06643459
174	0xbdd911ff	-0.105991356
175	0xbce27292	-0.027642522
176	0xbc2ca6c6	-0.010537809
177	0x3ea0e4c8	0.31424546
178	0x3e58ac46	0.21159467
179	0x3e4d604f	0.2005627
180	0xbe5b535f	-0.21418522
181	0xbe10021e	-0.14063308
182	0xbd9dd02d	-0.07705722
183	0xbdb43e84	-0.088009864
184	0xbd458f3d	-0.048232306
185	0xbecbc611	-0.3979955
186	0xbe29ed46	-0.16594419
187	0xbe91295d	-0.2835187
188	0xbe5b2315	-0.21400101
189	0x3e332fc8	0.17498696
190	0x3d19302b	0.037399452
191	0xbe2c37b5	-0.16818126

bias f4 [64]
0	0xbbbf63d1	-0.0058407565
1	0x00000000	0.0
2	0x3bb0c201	0.005394221
3	0x3bbf3f4c	0.005836403
4	0x3a7f55ed	0.0009740282
5	0xbbb53b52	-0.005530753
6	0x3abcbc91	0.0014399459
7	0x3bbdfe38	0.0057981275
8	0x3bc2b5ea	0.005942096
9	0xbb80101c	-0.0039081704
10	0x00000000	0.0
11	0x00000000	0.0
12	0x3bb4a2e2	0.005512581
13	0x00000000	0.0
14	0xbbb93c61	-0.0056529497
15	0x3bcb93b4	0.006212676
16	0x3bca37b6	0.006171192
17	0xbb8ef948	-0.0043632127
18	0x00000000	0.0
19	0x00000000	0.0
20	0xbba91dc7	-0.0051610204
21	0xbbab5163	-0.005228208
22	0x00000000	0.0
23	0xbba9a264	-0.005176829
24	0x3bb80932	0.0056163305
25	0x00000000	0.0
26	0x00000000	0.0
27	0xbbb01193	-0.0053731888
28	0x3bcd2286	0.006260219
29	0x3ba96911	0.0051699956
30	0x00000000	0.0
31	0xbbcb6cdf	-0.006208047
32	0x3b97d1b6	0.004633154
33	0xbbc0bdd1	-0.005882003
34	0x00000000	0.0
35	0x00000000	0.0
36	0x3b033344	0.002001957
37	0x00000000	0.0
38	0x00000000	0.0
39	0x3be9b4ae	0.0071321344
40	0xbb88b42c	-0.004171869
41	0x3bc5f310	0.006040938
42	0xbb1e4eff	-0.0024155972
43	0x00000000	0.0
44	0x00000000	0.0
45	0x00000000	0.0
46	0x00000000	0.0
47	0x3bad5c47	0.0052905413
48	0xbb452812	-0.0030083698
49	0x3bc74920	0.006081715
50	0x3b58139f	0.003297068
51	0x00000000	0.0
52	0xbbb25489	-0.0054422063
53	0x00000000	0.0
54	0x00000000	0.0
55	0x00000000	0.0
56	0x3bd43874	0.0064764563
57	0xbbc5ea0d	-0.006039864
58	0x00000000	0.0
59	0x3bb01f61	0.0053748344
60	0x00000000	0.0
61	0x00000000	0.0
62	0x00000000	0.0
63	0xbb5f9ede	-0.0034121792

weight f4 [64, 64]
0	0xbea60b04	-0.3243028
1	0xbca55f66	-0.020187091
2	0x3eae1784	0.34002316
3	0xbeea7f11	-0.4580007
4	0x3e2244f0	0.1584661
5	0xbda77de8	-0.081783116
6	0x3dd54a7a	0.10414596
7	0xbcc7eda6	-0.024405312
8	0xbdb100fb	-0.08642765
9	0x3e595de1	0.21227218
10	0xbdec97e9	-0.11552412
11	0x3bc0714d	0.0058728815
12	0xbe8a68f9	-0.27033213
13	0x3db1a30e	0.08673678
14	0xbdd6901d	-0.10476706
15	0x3d8894ce	0.06669007
16	0x3d1cc596	0.03827437
17	0x3d7d4e17	0.06184205
18	0x3c40c9c1	0.011766852
19	0x3e2141a8	0.15747702
20	0xbd9ff43d	-0.07810257
21	0x3db8fda3	0.09032752
22	0xbe2bc892	-0.1677573
23	0xbd507e41	-0.050901655
24	0xbc989812	-0.0186272
25	0x3e32941e	0.17439315
26	0x3d3183b2	0.043338485
27	0xbddbf210	-0.10739529
28	0xbe4ecb9d	-0.2019486
29	0xbe76f96f	-0.24118589
30	0x3e2a7df2	0.16649607
31	0xbe561b93	-0.20908956
32	0x3d3821e4	0.044954196
33	0x3ee5482d	0.44781628
34	0xbe6b8352	-0.22999313
35	0x3e297bff	0.16551207
36	0xbe75aacb	-0.23990934
37	0x3df1780c	0.11790475
38	0xbe9a0028	-0.30078244
39	0x3d935910	0.07194722
40	0xbe08870b	-0.13332765
41	0xbe1340c0	-0.14380169
42	0x3d335c52	0.043789215
43	0x3d3fe6d4	0.046850994
44	0x3e90067a	0.2812994
45	0xbe4afda6	-0.19823322
46	0xbcdf1712	-0.02723268
47	0x3e9be8e8	0.3045113
48	0xbdf1c49d	-0.11805079
49	0x3ccf6013	0.025314366
50	0xbcb74615	-0.022372285
51	0x3e8ec0a2	0.27881342
52	0xbe019319	-0.1265377
53	0x3ed8b75d	0.42327395
54	0xbbed8285	-0.007248225
55	0xbda93641	-0.08262301
56	0x3e270a37	0.1631249
57	0xbd84b043	-0.06478932
58	0x3bdacd76	0.006677325
59	0xbd985b71	-0.07439316
60	0x3d53ef5a	0.051741935
61	0xbcf20b31	-0.029546352
62	0xbdf11b92	-0.11772837
63	0xbe146050	-0.14489865
64	0x3d0adaee	0.033900194
65	0xbe013c4a	-0.12620655
66	0x3e1da5ab	0.15395229
67	0x3e14e6a7	0.14541112
68	0xbc2032db	-0.00977775
69	0xbdcda96d	-0.10042081
70	0x3e8550f5	0.26038328
71	0xbe6b3386	-0.22968873
72	0xbd7436b1	-0.05962247
73	0xbbc0ea1e	-0.005887284
74	0xbd649a82	-0.055811413
75	0x3e48575e	0.19564578
76	0xbe5a41ea	-0.21314207
77	0xbd3351ea	-0.04377929
78	0x3e3a2d9d	0.18181463
79	0xbe1d5777	-0.15365396
80	0xbe8670dc	-0.2625798
81	0xbd49ceed	-0.049269605
82	0x3e581652	0.21102265
83	0xbe08bb75	-0.13352759
84	0xbe2f5c46	-0.17125043
85	0x3d6b3afa	0.05742929
86	0xbdfb2760	-0.122633696
87	0xbce1a920	-0.027546465
88	0x3dc5ce09	0.09658439
89	0xbd832374	-0.064032465
90	0x3de65886	0.11247353
91	0xbe8f9b33	-0.28048095
92	0x3ede52cf	0.43422553
93	0xbde34ad0	-0.11098254
94	0x3e3ac406	0.1823884
95	0x3ea40128	0.32032132
96	0xbe86ac5b	-0.26303372
97	0x3dc31f62	0.0952747
98	0x3e2fc0bf	0.1716337
99	0x3c5dca96	0.01353707
100	0xbe829251	-0.25502256
101	0xbe3d1ea1	-0.18468715
102	0xbd2ea368	-0.042636305
103	0x3bacf14d	0.0052777887
104	0x3d4335e4	0.047658816
105	0x3e9aaae3	0.302085
106	0x3dbc6850	0.091995835
107	0x3df8c08a	0.12146099
108	0x3cdd307b	0.027000656
109	0x3eaddfed	0.33959904
110	0x3eadc3fc	0.33938587
111	0xbc41c8b4	-0.0118276365
112	0x3cf70543	0.030153876
113	0x3cc7d134	0.024391748
114	0x3d2cbbd6	0.04217132
115	0xbe1565a4	-0.14589554
116	0xbcf3eaf8	-0.029775128
117	0x3e111a4a	0.14170185
118	0xbe90da36	-0.28291482
119	0x3dc4b154	0.09604135
120	0xbdfa1993	-0.12211909
121	0xbe2b3147	-0.16718017
122	0xbe174427	-0.14772092
123	0x3dd85730	0.10563505
124	0x3ebbe5f0	0.36698866
125	0x3c51be0e	0.01280166
126	0xbe284770	-0.16433501
127	0xbea60e33	-0.32432708
128	0x3d870be4	0.06594065
129	0x3e14179c	0.14462131
130	0x3d35fc7a	0.044430234
131	0x3d85f333	0.06540527
132	0x3ca298b4	0.019848205
133	0xbea4ff17	-0.32225868
134	0x3e22c1e7	0.1589428
135	0x3f0c1c57	0.54730743
136	0x3e58e4a0	0.21180964
137	0xbc8129c4	-0.015766986
138	0x3e0719db	0.13193457
139	0x3f1bc46f	0.6084661
140	0xbe36bed5	-0.17846234
141	0x3d523657	0.051321354
142	0x3cd25bbe	0.025678512
143	0x3df6d960	0.1205318
144	0xbd34e6fe	-0.044165604
145	0x3d9ff7b3	0.07810917
146	0xbdfa9fee	-0.122375354
147	0xbe829e0d	-0.25511208
148	0x3e87cb27	0.2652218
149	0xbdc294f3	-0.09501066
150	0xbd69d2ce	-0.057085805
151	0x3d93bc69	0.07213671
152	0xbe3517cc	-0.17684859
153	0x3e345b43	0.17612939
154	0x3e8b388a	0.27191573
155	0x3c9c40db	0.019073894
156	0xbe6a5d6d	-0.22887202
157	0x3dc21dcd	0.0947834
158	0xbd2e3941	-0.04253507
159	0xbd9fb82a	-0.077987984
160	0x3d6317ab	0.055442493
161	0xbd3bbdcf	-0.045835312
162	0xbe318f34	-0.17339784
163	0xbe4d1e5f	-0.20031117
164	0xbe2d1129	-0.16901077
165	0xbd055b58	-0.032557815
166	0xbd779357	-0.06044325
167	0x3d4f02a7	0.05053964
168	0x3dab86cf	0.08375322
169	0xbd18a731	-0.03726882
170	0x3e0cac4e	0.13737604
171	0xbd70e158	-0.058808655
172	0x3eb4b681	0.3529549
173	0x3e0d8d9c	0.13823551
174	0xbe5a4699	-0.21315993
175	0xbd98bb39	-0.07457585
176	0xbcaf85c1	-0.021426084
177	0xbdecce91	-0.11562837
178	0xbe2f0738	-0.17092597
179	0xbebf2ae9	-0.37337425
180	0xbda8e620	-0.08247018
181	0xbdca0597	-0.098643474
182	0xbd6c5b12	-0.05770404
183	0x3d2d3186	0.042283557
184	0x3d12b335	0.035815436
185	0x3db794b0	0.08963907
186	0x3df93f6a	0.121702984
187	0x3d885cdd	0.06658337
188	0x3e8ae5be	0.27128404
189	0xbdcb670b	-0.09931763
190	0x3e04ae7b	0.12957184
191	0xbd96e9b9	-0.07368798
192	0xbe95790c	-0.29193914
193	0x3d8e96c0	0.06962347
194	0x3d91187b	0.070847474
195	0x3e6ec03b	0.23315518
196	0x3e38771d	0.18014188
197	0x3e34b09a	0.17645493
198	0x3e4e7bda	0.20164433
199	0xbe41dc6d	-0.18931742
200	0xbce8c674	-0.028414942
201	0x3dd09dfc	0.10186383
202	0xbcfe1343	-0.031015044
203	0x3dc41ce9	0.09575827
204	0xbbea721e	-0.007154717
205	0xbe0c737d	-0.1371593
206	0x3c22a440	0.009926856
207	0x3e841b0b	0.25801882
208	0xbdfc35a4	-0.12314919
209	0x3db8bf72	0.0902089
210	0xbd087858	-0.033317894
211	0x3ec49034	0.38391268
212	0x3d13bcb3	0.03606863
213	0xbee64371	-0.4497333
214	0x3f03e430	0.5152006
215	0x3e972852	0.2952295
216	0xbdd6d6bb	-0.10490175
217	0xbc73351b	-0.014844204
218	0x3da24eb8	0.07925171
219	0xbd8d0287	-0.06885248
220	0xbe09ed9f	-0.13469552
221	0xbe866eec	-0.26256502
222	0xbd840d0f	-0.06447803
223	0xbd86368e	-0.06553374
224	0xbead778c	-0.3388027
225	0xbcbf4955	-0.023350397
226	0x3e50b03a	0.20379725
227	0xbd8f25fc	-0.06989667
228	0x3d3dc962	0.04633463
229	0x3d446f34	0.047957614
230	0x3ed9b81e	0.42523283
231	0x3d8e9430	0.06961858
232	0x3e12c08e	0.14331266
233	0xbd05c739	-0.032660697
234	0xbd21c0cb	-0.039490502
235	0xbeabf2d7	-0.3358371
236	0x3e5caddd	0.21550699
237	0xbddd7495	-0.10813252
238	0x3de4c1b6	0.1116976
239	0xbd428942	-0.04749418
240	0xbd9abde7	-0.07555752
241	0xbdade577	-0.084910326
242	0x3e4dedf9	0.2011031
243	0xbd54e47f	-0.051975723
244	0xbe82dbec	-0.25558412
245	0x3d97c07f	0.074097626
246	0x3d2f3129	0.042771492
247	0xbd8fb50d	-0.070169546
248	0x3e00d6c0	0.1258192
249	0x3dd3b896	0.10337941
250	0xbe098a31	-0.13431622
251	0xbd367a57	-0.044550266
252	0x3dee6dfe	0.11642073
253	0x3d1ebbe7	0.038753416
254	0x3d592f90	0.053023875
255	0xbd1ebc52	-0.038753815

bias f4 [64]
0	0x00000000	0.0
1	0x00000000	0.0
2	0xbb88083b	-0.004151372
3	0xbacca69d	-0.001561362
4	0xbbb176d7	-0.005415778
5	0x3bb2461e	0.0054404875
6	0x3bb26ee0	0.0054453462
7	0xbb9eea85	-0.0048497343
8	0x00000000	0.0
9	0x00000000	0.0
10	0x3bb4e7a5	0.0055207782
11	0x00000000	0.0
12	0x3bb3444e	0.005470789
13	0x00000000	0.0
14	0xbbb13eca	-0.0054090964
15	0x3bbfb162	0.005850003
16	0xbb0bf610	-0.0021356381
17	0x00000000	0.0
18	0x3bb4be04	0.0055158157
19	0x00000000	0.0
20	0xbbafff93	-0.005371043
21	0x3bc02d9f	0.0058648135
22	0x00000000	0.0
23	0xbb88125a	-0.0041525783
24	0x3b9b81f4	0.004745716
25	0x3bdf0d90	0.0068070367
26	0xbbb0af4c	-0.0053919908
27	0x00000000	0.0
28	0xbbb11112	-0.0054036463
29	0x3bb41f31	0.0054968824
30	0x3bba5ba4	0.005687194
31	0x00000000	0.0
32	0xbbaf08d9	-0.005341631
33	0x00000000	0.0
34	0xbbb10fd8	-0.0054035
35	0x00000000	0.0
36	0x00000000	0.0
37	0x00000000	0.0
38	0xbbb0e589	-0.0053984565
39	0xbbb17792	-0.005415865
40	0x00000000	0.0
41	0x3bb37f0f	0.005477793
42	0x00000000	0.0
43	0x00000000	0.0
44	0x3bb9a11a	0.0056649568
45	0xbbb00541	-0.00537172
46	0x00000000	0.0
47	0x00000000	0.0
48	0xbb19a19f	-0.002344228
49	0x00000000	0.0
50	0xbbb10162	-0.005401776
51	0xbbadfcc1	-0.0053096716
52	0x00000000	0.0
53	0xbbab0240	-0.005218774
54	0x3bb5d108	0.0055486
55	0x00000000	0.0
56	0xbbb3aab8	-0.0054829977
57	0x3bbb66c8	0.0057190396
58	0x3bb4b31e	0.0055145165
59	0x00000000	0.0
60	0x3bb9f699	0.0056751487
61	0xbba137d9	-0.0049199876
62	0x00000000	0.0
63	0xbbb057e0	-0.0053815693

weight f4 [1, 64]
0	0x3d59f955	0.053216297
1	0x3d7151d6	0.058915935
2	0xbe42cde1	-0.19023849
3	0xbdbe08d4	-0.092790276
4	0xbe95a812	-0.2922979
5	0x3e9b4fe3	0.30334386
6	0x3e5d089d	0.21585317
7	0xbd937c22	-0.07201411
8	0x3e649914	0.2232402
9	0x3e2c29b4	0.16812783
10	0x3e1134aa	0.14180246
11	0xbe3cc98f	-0.18436264
12	0x3db92782	0.09040739
13	0xbe1adada	-0.15122548
14	0xbdf54859	-0.1197669
15	0x3ed37fd9	0.41308478
16	0xbe888712	-0.2666555
17	0xbe6de446	-0.2323161
18	0x3d3a2243	0.04544283
19	0x3dd83519	0.105570026
20	0xbd7609d4	-0.060067967
21	0x3e02ed4e	0.12785837
22	0x3de66b85	0.112509765
23	0xbd1bf06d	-0.038071085
24	0x3cb7af6c	0.022422515
25	0x3eaf5fb9	0.34252718
26	0xbd6dd6f2	-0.058066316
27	0x3e06da72	0.13169268
28	0xbe1459ec	-0.14487427
29	0x3d6a2139	0.05716059
30	0x3c8f036e	0.01745769
31	0x3df70d2f	0.120630614
32	0xbd1e6aab	-0.038675945
33	0xbe02b45a	-0.12764111
34	0xbe11e956	-0.14249167
35	0xbe2d4cb6	-0.16923794
36	0xbe846290	-0.25856447
37	0x3e0a5591	0.13509203
38	0xbdf5c1a8	-0.119998276
39	0xbe948df4	-0.29014552
40	0x3e626ce8	0.22111857
41	0x3e2ca005	0.16857918
42	0xbed4f3a4	-0.41592133
43	0xbd1e24e3	-0.038609397
44	0x3e8e6a89	0.27815655
45	0xbd799608	-0.060934097
46	0xbce25f4a	-0.027633328
47	0xbe7c9d16	-0.24669299
48	0xbeca315d	-0.39490786
49	0x3d89ce31	0.06728781
50	0xbd86b135	-0.06576768
51	0xbce42a62	-0.027852241
52	0xbc5a95f3	-0.013341415
53	0xbe0dc104	-0.13843161
54	0x3d0c0d19	0.03419218
55	0x3daa921a	0.08328648
56	0xbe14e037	-0.14538656
57	0x3e144ca0	0.14482355
58	0x3d3dd9e5	0.04635038
59	0x3de9205d	0.11383126
60	0x3c93ddac	0.018050037
61	0xbeb16c4f	-0.34652945
62	0x3d1b636f	0.037936624
63	0xbd90f0f3	-0.070772074

weight f4 [64, 4]
0	0xbc8259ef	-0.015912024
1	0x3e1ec321	0.15504123
2	0xbd397bd4	-0.045284107
3	0xbdf18998	-0.11793822
4	0x3e1d11c1	0.15338804
5	0xbdf2eca2	-0.118615404
6	0x3e1b4842	0.15164283
7	0x3dd11836	0.10209696
8	0xbe659760	-0.22421026
9	0x3d603e82	0.054747112
10	0xbe8f26a1	-0.2795916
11	0x3e55e434	0.20887834
12	0x3e0d0ec1	0.1377516
13	0x3da87e30	0.08227193
14	0x3e813642	0.25236708
15	0x3d9e9def	0.07744967
16	0x3d983130	0.07431257
17	0xbd725a45	-0.05916812
18	0xbe43b7cb	-0.1911308
19	0x3e299d14	0.16563827
20	0xbe312b9a	-0.17301789
21	0x3e5f974f	0.21835063
22	0xbe14fcea	-0.14549604
23	0x3c9a7b1d	0.018857533
24	0xbd64ac47	-0.05582836
25	0x3d2ced7b	0.042218667
26	0xbdf61153	-0.12015023
27	0xbe280f7d	-0.16412158
28	0x3ed8aa87	0.42317602
29	0x3e8155e1	0.25260833
30	0x3e82c046	0.25537318
31	0x3d0dae3c	0.03458999
32	0x3ea68f9e	0.32531446
33	0x3e960fee	0.29309028
34	0x3d75a370	0.05997032
35	0x3d64433f	0.055728193
36	0x3ccf8ee3	0.025336688
37	0x3cd1fe13	0.025633847
38	0xbe9cea52	-0.30647522
39	0xbd900c11	-0.070335515
40	0x3df91f85	0.12164215
41	0x3b5a1f94	0.0033282982
42	0x3d8fef6c	0.07028088
43	0xbc4fa1af	-0.012672826
44	0x3decfb29	0.115713425
45	0xbe9517db	-0.29119763
46	0xbd9f2c28	-0.07772094
47	0xbec1e0b5	-0.3786675
48	0xbdc48ab1	-0.09596766
49	0x3e1d9b8d	0.15391369
50	0xbde245f2	-0.11048497
51	0x3e151a21	0.14560749
52	0xbe2751d3	-0.16339807
53	0xbe43a123	-0.19104438
54	0x3e27b7a5	0.16378649
55	0x3e700f1e	0.23443267
56	0xbda16bda	-0.07881899
57	0x3d297df9	0.041379903
58	0x3d170a97	0.036875334
59	0x3e6d8e6d	0.23198862
60	0xb875bd4b	-5.8588845e-05
61	0x3e4855f8	0.19564044
62	0xbda62be1	-0.08113838
63	0xbe01d766	-0.12679824
64	0x3d7ea646	0.06217029
65	0xbd5bf4e3	-0.05370034
66	0xbe93b007	-0.28845236
67	0xbe210c41	-0.1572733
68	0x3e2a9bb5	0.1666096
69	0x3e6838e1	0.22677948
70	0xbe767906	-0.24069604
71	0x3d195c52	0.03744156
72	0xbd78aa9a	-0.060709573
73	0x3c9b8ef1	0.018989058
74	0x3de6a800	0.11262512
75	0x3e31d00b	0.17364518
76	0xbe046be2	-0.12931779
77	0x3e48db86	0.19614992
78	0xbea26ded	-0.31724492
79	0xbd8e4f44	-0.069487125
80	0x3cf4b910	0.0298734
81	0x3d85b853	0.06529298
82	0x3ede727a	0.43446714
83	0x3e515c0b	0.20445268
84	0x3e27f06c	0.16400307
85	0xbda91e26	-0.082577035
86	0xbe4ffa58	-0.20310342
87	0xbd4c0bec	-0.049816057
88	0x3eb16fd0	0.3465562
89	0xbe88abca	-0.26693565
90	0xbe9cce27	-0.30626032
91	0xbe67f34c	-0.22651404
92	0xbbdf6e45	-0.006818565
93	0x3ea25ecf	0.31712958
94	0x3d944418	0.0723955
95	0x3e119e60	0.14220572
96	0x3dea3a09	0.114368506
97	0xbe1ff610	-0.15621209
98	0x3b7deae3	0.003874474
99	0x3eefea54	0.46858466
100	0xbe278e51	-0.16362883
101	0xbde060b5	-0.109559454
102	0x3e10bb4c	0.14133948
103	0xbd569687	-0.052389648
104	0xbe085c27	-0.13316403
105	0x3e32f48a	0.17476097
106	0x3e6beb4e	0.2303898
107	0xbe74e7ea	-0.23916593
108	0xbe952626	-0.29130667
109	0x3dffe0eb	0.124940716
110	0xbcc16ffc	-0.023612969
111	0xbd5294fe	-0.05141162
112	0xbd84b0dd	-0.064790465
113	0xbea961fb	-0.33082566
114	0x3dc05a12	0.093921795
115	0x3dd14ca4	0.10219696
116	0x3d290b8d	0.04127078
117	0x3dbf876f	0.09352004
118	0x3c7fcbae	0.015612526
119	0x3eaa0646	0.3320791
120	0xbea73c9e	-0.32663435
121	0x3d860972	0.0654477
122	0x3d4cc57a	0.049993016
123	0xbdbecb3f	-0.0931611
124	0xbeaada4d	-0.33369675
125	0xbe3aaa71	-0.1822908
126	0x3c2067f4	0.009790409
127	0x3e597286	0.21235093
128	0xbe858725	-0.2607967
129	0x3e1febd4	0.15617305
130	0x3e49a00b	0.19689958
131	0xbe5170dd	-0.2045321
132	0x3cbf4e53	0.023352778
133	0x3ddbc023	0.107300065
134	0xbda509a7	-0.08058482
135	0xbd833332	-0.06406249
136	0x3a018d91	0.00049420545
137	0x3cdf80e3	0.027283138
138	0x3da3f4a2	0.080056444
139	0x3c9a58ce	0.018841173
140	0xbe3aeb57	-0.18253838
141	0xbde2101d	-0.110382296
142	0xbc4441b0	-0.011978552
143	0xbe8ddc0c	-0.27706945
144	0xbdd0014b	-0.101564966
145	0x3def8968	0.1169613
146	0x3c199fac	0.009376448
147	0xbd89e093	-0.06732287
148	0x3e2d5df1	0.16930367
149	0xbec83a12	-0.39106804
150	0x3d0794c3	0.033100855
151	0x3d597cf8	0.053097695
152	0x3d88d5f4	0.06681433
153	0xbd786f7f	-0.060653206
154	0xbe2a3721	-0.16622593
155	0x3d80483a	0.06263776
156	0xbdce4776	-0.10072224
157	0xbd7c884d	-0.061653424
158	0xbccf9363	-0.025338834
159	0xbda7859b	-0.0817978
160	0x3e1c8e86	0.15288743
161	0x3e4f502f	0.20245431
162	0x3ca78ba9	0.020452337
163	0x3e7791c1	0.24176694
164	0x3cafc801	0.021457674
165	0xbe3c3b6a	-0.1838204
166	0x3e6c6940	0.23087025
167	0x3d855d33	0.06511917
168	0xbe10813e	-0.14111802
169	0x3e8c7d9c	0.27439582
170	0x3d978fdf	0.07400488
171	0x3e7b467b	0.24538605
172	0x3c93b046	0.01802839
173	0x3e2542f7	0.16138826
174	0x3d196dfd	0.03745841
175	0xbe727fe2	-0.23681596
176	0x3e801a11	0.25019887
177	0xbd5d4949	-0.05402497
178	0xbbbc2589	-0.005741779
179	0xbddc3e0e	-0.107540235
180	0x3e78eba5	0.24308641
181	0x3e988f83	0.2979699
182	0xbe84cccd	-0.259375
183	0xbdc6e7e1	-0.09712196
184	0x3ecf5b05	0.4049913
185	0xbd610f6a	-0.05494634
186	0x3e2bb41a	0.16767922
187	0xbe0ff23a	-0.14057246
188	0xbd1a2c68	-0.037640005
189	0xbe46d62a	-0.19417635
190	0xbd36fdc7	-0.044675615
191	0x3e2c3189	0.16815771
192	0xbdcc5400	-0.09976959
193	0xbe0ecbde	-0.13944957
194	0xbe554f88	-0.2083112
195	0x3e65aa40	0.22428226
196	0x3ca2751e	0.019831236
197	0xbdb238b3	-0.08702221
198	0x3d9c1881	0.07621861
199	0x3e3c5ce8	0.18394816
200	0x3e8522d7	0.26003143
201	0xbd8234ec	-0.0635775
202	0xbe3d7d86	-0.18504915
203	0x3c950993	0.018193042
204	0xbe75fcfb	-0.24022286
205	0x3d93898b	0.072039686
206	0x3c13c334	0.009018708
207	0x3d7aadd4	0.06120093
208	0xbe81d48a	-0.25357467
209	0xbe0ab50f	-0.13545631
210	0xbd662e80	-0.05619669
211	0xbe0a1f57	-0.13488518
212	0xbddbf66f	-0.10740363
213	0x3e731510	0.23738503
214	0xbeea0fb5	-0.4571511
215	0xbc64ef09	-0.013973006
216	0xbebdbe0c	-0.37059057
217	0xbdd07ff2	-0.10180654
218	0xbcb46c92	-0.022024427
219	0xbe4ba88c	-0.19888514
220	0x3e5116a0	0.20418787
221	0x3e6ba6bd	0.23012824
222	0x3dee2bdf	0.116294615
223	0xbe16e323	-0.14735083
224	0xbe6308b8	-0.22171295
225	0xbe4047f6	-0.18777451
226	0x3e8fb654	0.28068793
227	0xbebd4eb9	-0.36974123
228	0xbe175f0a	-0.14782348
229	0x3e4690cd	0.19391175
230	0xbe5506ed	-0.20803423
231	0x3d59bb54	0.053157166
232	0x3daebab1	0.08531702
233	0xbe5bb0f1	-0.21454217
234	0x3cc4a913	0.024006402
235	0xbea26723	-0.31719312
236	0x3a21ca02	0.0006171764
237	0x3e025d0d	0.12730809
238	0x3bc2986f	0.0059385817
239	0xbb577b93	-0.0032880052
240	0xbdb95eb3	-0.090512656
241	0xbe2fd6ca	-0.1717178
242	0xbe9a633f	-0.30153844
243	0x3e8dd783	0.27703485
244	0x3c5d6bdb	0.013514484
245	0xbeedde58	-0.46458697
246	0xbe9ffc77	-0.31247303
247	0x3df7337d	0.120703675
248	0x3ddd5810	0.10807812
249	0x3d7127d6	0.05887588
250	0x3de1bffd	0.11022947
251	0x3d8125ac	0.063060135
252	0xbdda3f5f	-0.10656618
253	0x3d82e3b0	0.06391084
254	0xbc13291d	-0.00898197
255	0xbe13bac7	-0.14426719

bias f4 [64]
0	0x3ca36293	0.019944465
1	0x3c6ca3ca	0.014443347
2	0xbc20a1fd	-0.009804246
3	0xbc4fb529	-0.012677469
4	0xbb4aff06	-0.003097476
5	0x3c97df8f	0.018539218
6	0x00000000	0.0
7	0x3c9bc8f7	0.019016726
8	0xbc19eb87	-0.009394533
9	0xbc92e18f	-0.01792982
10	0xbc596f14	-0.013271112
11	0x00000000	0.0
12	0x3c952a99	0.018208789
13	0xbca4f590	-0.020136625
14	0xbc5e7af7	-0.013579122
15	0x3c688db6	0.014193943
16	0xbb8263f5	-0.003979201
17	0x3c614466	0.013749218
18	0x3c5b0675	0.013368239
19	0xbcb093f0	-0.021554917
20	0x3c87bb1c	0.016568713
21	0xbc89e7d5	-0.016834179
22	0xbc1da8f4	-0.009622801
23	0x3c5dcd15	0.013537665
24	0x3adcf652	0.0016858077
25	0x00000000	0.0
26	0x3c83f445	0.016107688
27	0x00000000	0.0
28	0x00000000	0.0
29	0xb7947020	-1.7695187e-05
30	0x00000000	0.0
31	0x00000000	0.0
32	0xbc55715f	-0.013027518
33	0x3c80dc22	0.015729968
34	0xbc5f405b	-0.013626183
35	0x00000000	0.0
36	0xbc734613	-0.01484825
37	0x00000000	0.0
38	0x3ca5711b	0.020195534
39	0x00000000	0.0
40	0x3c4558c1	0.012045086
41	0x3caa8d3d	0.0208193
42	0xbc736a61	-0.014856906
43	0x3c7e6d94	0.015529055
44	0x3c8b8a13	0.017033612
45	0x3c9ce2af	0.01915106
46	0x3c80208a	0.015640516
47	0x00000000	0.0
48	0xba952356	-0.0011378329
49	0x3c9d3e1b	0.019194653
50	0x3c810732	0.015750501
51	0x00000000	0.0
52	0x00000000	0.0
53	0xbbcb65e3	-0.006207214
54	0x00000000	0.0
55	0x3c64534c	0.013935875
56	0x00000000	0.0
57	0x3cb9c41e	0.022676524
58	0x00000000	0.0
59	0x3c8a24df	0.016863285
60	0xbb8e6ec6	-0.0043467013
61	0x00000000	0.0
62	0xbc79b287	-0.015240318
63	0x00000000	0.0

weight f4 [64, 64]
0	0x3dbde1fd	0.092716195
1	0xbe08e139	-0.13367166
2	0x3e26e350	0.1629765
3	0xbd33cee6	-0.043898486
4	0xbe69a875	-0.22818168
5	0xbdc32a79	-0.095295854
6	0xbe318d3d	-0.17339034
7	0x3e037c4a	0.12840381
8	0x3e685112	0.22687176
9	0x3ce69bcf	0.028150467
10	0x3e2a89f4	0.16654187
11	0x3deae489	0.11469371
12	0x3d4eb49a	0.050465204
13	0x3e356b0e	0.1771662
14	0x3e8f1b90	0.27950716
15	0xbe33b2a7	-0.17548619
16	0x3e2fac77	0.17155634
17	0x3de6dd39	0.112726636
18	0xbec4d7db	-0.38445935
19	0x3e1c1d75	0.15245612
20	0x3de2f9be	0.11082791
21	0x3d8dc900	0.06923103
22	0xbde195f0	-0.110149264
23	0x3dac029d	0.08398936
24	0xbd800134	-0.062502295
25	0xbdc6fb5a	-0.0971591
26	0xbe2bf2bb	-0.16791813
27	0x3d5a7a4a	0.05333928
28	0xbead96b2	-0.33904034
29	0xbd19c547	-0.037541654
30	0xbd19822a	-0.03747765
31	0x3e53e9f4	0.20694715
32	0x3e89297b	0.2678946
33	0xbebb07f5	-0.36529508
34	0x3caf83ec	0.02142521
35	0x3e095281	0.13410379
36	0xbe96fc79	-0.29489496
37	0x3d7bdfe5	0.06149282
38	0xbe834f7b	-0.25646576
39	0x3e5f705c	0.21820205
40	0xbdce4cc1	-0.100732334
41	0xbe9026d9	-0.28154638
42	0xbda6505c	-0.08120796
43	0xbe104e77	-0.14092432
44	0xbe9cb37a	-0.3060568
45	0x3dfa8c0e	0.122337446
46	0xbd919a30	-0.07109487
47	0xbda7288d	-0.08162031
48	0x3de74b9a	0.11293717
49	0x3cb29939	0.021801578
50	0x3e1db6c4	0.15401751
51	0xbe67e074	-0.22644216
52	0xbdbfec26	-0.093712136
53	0x3cab18a5	0.020885775
54	0xbdc5c294	-0.096562535
55	0xbe30ceba	-0.1726636
56	0xbd531ad4	-0.051539257
57	0x3c255af6	0.010092488
58	0xbdd3f25b	-0.1034896
59	0x3d8a1cfc	0.067438096
60	0x3d13d860	0.036095023
61	0x3eb0d25a	0.34535486
62	0x3ee08903	0.43854532
63	0x3e48202f	0.19543527
64	0x3b360e7d	0.0027779632
65	0xbda600a6	-0.081055924
66	0x3ea0ab42	0.3138066
67	0x3c47488d	0.012163294
68	0xbe57cf2b	-0.21075122
69	0x3eb0355d	0.34415713
70	0xbdaa09c9	-0.083026476
71	0xba8f5578	-0.0010935506
72	0x3e2b2171	0.16711976
73	0x3b6573e6	0.0035011708
74	0x3d216bd1	0.039409462
75	0x3d40294a	0.046914376
76	0xbe27c5bd	-0.16384025
77	0x3e201ca4	0.15635926
78	0xbdeb8f31	-0.11501921
79	0xbd9a21d5	-0.07525984
80	0xbe9fd949	-0.31220463
81	0x3d5aa709	0.053381953
82	0x3d97d8d9	0.07414407
83	0xbd5ceca6	-0.053936623
84	0xbe460468	-0.19337618
85	0xbe421b93	-0.18955831
86	0xbe9da374	-0.30788767
87	0x3dae1e6c	0.08501896
88	0x3ea2b6b0	0.31780005
89	0xbeb62e8b	-0.35582384
90	0x3e63e381	0.22254755
91	0xbe0a746f	-0.13520978
92	0x3d502e61	0.05082548
93	0xbe428079	-0.18994321
94	0xbe0895b3	-0.13338356
95	0xbe45fc59	-0.19334544
96	0xbe15d5cb	-0.14632337
97	0xbe8f81d1	-0.2802873
98	0xbd63d3a2	-0.05562175
99	0xbd80df0b	-0.06292542
100	0xbda1818f	-0.078860395
101	0xbdbfcdff	-0.093654625
102	0x3e62a170	0.22131896
103	0xbe69913b	-0.22809307
104	0xbe32b15a	-0.17450467
105	0xbe6b17b0	-0.22958255
106	0x3d8d8e4a	0.06911905
107	0xbe1a62f3	-0.15076809
108	0xbe1c68cc	-0.15274352
109	0x3dfa7358	0.12229031
110	0x3ed2d38b	0.4117702
111	0xbd7d0d39	-0.06178019
112	0xbe4cccbc	-0.19999975
113	0xbdfcb578	-0.123393
114	0x3e33c2e0	0.17554808
115	0xbd20e95e	-0.039285056
116	0xbd61bda2	-0.05511249
117	0x3d2292d0	0.039690793
118	0x3d95848d	0.07300673
119	0x3d42b9e1	0.04754055
120	0x3e24ea6c	0.1610505
121	0x3edbcf8d	0.42931786
122	0x3df1ae32	0.11800803
123	0xbb465794	-0.0030264603
124	0x3d4a5b03	0.0494032
125	0xbd4c6586	-0.049901508
126	0xbe7152d5	-0.23566754
127	0x3e292ba1	0.1652055
128	0x3d84522e	0.06460987
129	0x3ec37cdb	0.38181195
130	0x3c9c2757	0.019061727
131	0xbda225b8	-0.079173505
132	0x3e0aede7	0.13567315
133	0xbdc35b66	-0.09538917
134	0x3e256713	0.16152601
135	0x3d58e370	0.052951276
136	0x3ea1a0a1	0.31567863
137	0x3e8c5b85	0.27413574
138	0x3df5911a	0.119905666
139	0x3e1f35e6	0.15547904
140	0xbe5a4460	-0.21315145
141	0xbd9449bf	-0.072406285
142	0xbea69abd	-0.3253993
143	0x3dbc4a36	0.09193842
144	0xbe1e9c53	-0.1548932
145	0x3c87adcc	0.016562365
146	0xbc142a6f	-0.00904332
147	0xbd58c302	-0.05292035
148	0xbdbe777d	-0.09300134
149	0x3ea48d10	0.32138872
150	0x3d7b6279	0.061373208
151	0x3e9458ee	0.28974098
152	0x3e560f41	0.20904256
153	0xbdff770d	-0.12473879
154	0xbf0cea5a	-0.5504509
155	0xbe8fe6df	-0.28105828
156	0xbd6d4d58	-0.05793509
157	0x3c9660b6	0.018356662
158	0x3cd48331	0.025941463
159	0x3cbb6779	0.022876488
160	0x3e599b2e	0.21250603
161	0x3d4b6e3e	0.049665682
162	0x3d57fed8	0.052733272
163	0x3dd7726c	0.10519871
164	0x3d980fef	0.07424914
165	0x3defd976	0.11711399
166	0x3c9b5b50	0.01896444
167	0x3e479362	0.19489816
168	0x3e2c57a6	0.1683031
169	0xbc83e971	-0.016102524
170	0x3d8b4263	0.06799772
171	0x3d8c5747	0.06852584
172	0xbe377355	-0.1791509
173	0x3d6a317a	0.05717609
174	0x3e02524b	0.12726705
175	0xbb8d17da	-0.004305822
176	0xbe28cc18	-0.16484106
177	0x3e07b746	0.13253507
178	0x3d703132	0.058640666
179	0xbef7dd2a	-0.48410922
180	0x3d12c4c5	0.035832185
181	0x3dcaa29e	0.09894298
182	0x3e5cbeb0	0.21557117
183	0x3de131a7	0.109957986
184	0xbd7338f6	-0.059380494
185	0xbc8a203e	-0.016861077
186	0x3d023ef1	0.031798307
187	0x3d9e6fc7	0.077361636
188	0xbd8f98b2	-0.07011546
189	0xbe94707f	-0.28992078
190	0xbd8ff978	-0.07030004
191	0xbea22d83	-0.31675348
192	0x3c7a8910	0.015291467
193	0xbd8e05cb	-0.06934699
194	0x3db4cbf0	0.088279605
195	0x3e143ec6	0.14477071
196	0xbe604eea	-0.21905103
197	0xbc645cd6	-0.013938149
198	0xbd7fe306	-0.062472366
199	0xbe7f761e	-0.24947402
200	0x3cde0f39	0.027106868
201	0x3d993535	0.074808516
202	0xbdb09ab0	-0.08623254
203	0x3ea74f1d	0.32677546
204	0x3e1fcd31	0.15605618
205	0x3ddc8edb	0.10769435
206	0xbd4bbdb0	-0.049741447
207	0xbea6a918	-0.32550883
208	0x3db5e73f	0.08881997
209	0x3e296e30	0.1654594
210	0x3ea847ae	0.32867187
211	0x3e75fe84	0.24022871
212	0xbd17e62d	-0.037084747
213	0xbe3b1425	-0.18269403
214	0xbe0206c4	-0.12697893
215	0xbce1e10a	-0.027573127
216	0x3ed27bdd	0.41110125
217	0xbdfd564c	-0.123699754
218	0xbd9ee392	-0.07758249
219	0x3e752cb2	0.23942831
220	0x3d98aa63	0.07454374
221	0xbe2f0d51	-0.17094924
222	0xbe3c8409	-0.18409742
223	0xbe46123c	-0.19342893
224	0x3dfc6d1b	0.12325498
225	0xbe24f9d4	-0.16110927
226	0xbd0f0eef	-0.03492635
227	0xbead1c7a	-0.33810788
228	0x3c2ce3f7	0.010552398
229	0xbe04be1f	-0.1296315
230	0xbca265cd	-0.019823933
231	0x3e9bfb59	0.304652
232	0x3dc25c0a	0.09490211
233	0x3ea6b500	0.32559967
234	0xbebf1f44	-0.3732854
235	0x3b9ffea4	0.0048826504
236	0x3dce63a7	0.10077601
237	0xbe06e3f8	-0.131729
238	0xbdc028c4	-0.093827754
239	0x3ea770d8	0.3270328
240	0xbd994f15	-0.07485787
241	0x3d05f542	0.0327046
242	0xbe134326	-0.14381084
243	0xbde03560	-0.109476805
244	0x3d3e3b18	0.046443075
245	0x3d16bc8c	0.036800906
246	0x3d7bd33c	0.061480746
247	0xbd93ab3a	-0.07210393
248	0xbe935b86	-0.28780764
249	0xbeb2649d	-0.34842387
250	0x3e28311c	0.16424984
251	0x3e1e678e	0.1546919
252	0xbdb182f4	-0.086675555
253	0xbd071c0a	-0.032985725
254	0x3bd9a625	0.0066421204
255	0xbcb911fa	-0.02259158

bias f4 [64]
0	0xbc64f42a	-0.013974229
1	0x3c91b63b	0.01778709
2	0x3c822ed5	0.015891472
3	0x00000000	0.0
4	0xbc62ce97	-0.0138432
5	0xbc6c40cd	-0.014419747
6	0x3c8389a7	0.016056849
7	0x3c695850	0.014242247
8	0x00000000	0.0
9	0xbaeee6a6	-0.0018226698
10	0x3c5e2fbb	0.0135611845
11	0x3c6d8a48	0.014498301
12	0x00000000	0.0
13	0x00000000	0.0
14	0x3c6d302b	0.014476816
15	0xbc125444	-0.008931223
16	0x3c6fe823	0.014642748
17	0x3c6a3ca2	0.014296683
18	0x00000000	0.0
19	0x3c6af75a	0.0143412
20	0x00000000	0.0
21	0x3c86ddb7	0.016463144
22	0x00000000	0.0
23	0xbaff18c0	-0.0019462332
24	0x3c68655a	0.01418432
25	0x3c69c181	0.014267326
26	0x3c6aa7ef	0.014322265
27	0xbb6758aa	-0.003530065
28	0x00000000	0.0
29	0x3c689748	0.0141962245
30	0x00000000	0.0
31	0x3c846a05	0.016163835
32	0x3c5f7b6b	0.013640265
33	0xbb9152d9	-0.004434925
34	0xbbdc4765	-0.006722378
35	0x3c699ace	0.0142581
36	0x00000000	0.0
37	0xbc87cbca	-0.016576666
38	0x00000000	0.0
39	0x00000000	0.0
40	0x3c694424	0.014237437
41	0xbbc38e6e	-0.0059679067
42	0xbb79ac9c	-0.0038097268
43	0x00000000	0.0
44	0x00000000	0.0
45	0xbc69ffcb	-0.014282177
46	0xbb2a002d	-0.0025940046
47	0x00000000	0.0
48	0x3c6bece1	0.014399738
49	0x3c7a2bee	0.015269263
50	0x00000000	0.0
51	0x00000000	0.0
52	0x3c697422	0.01424888
53	0xbc93dee0	-0.018050611
54	0xbc637703	-0.013883355
55	0x00000000	0.0
56	0xbc0f1b48	-0.008734532
57	0x00000000	0.0
58	0x00000000	0.0
59	0xbc858590	-0.01629904
60	0x00000000	0.0
61	0x3c753668	0.014966585
62	0x00000000	0.0
63	0xbc621617	-0.013799212

weight f4 [1, 64]
0	0x3ed0cd63	0.40781698
1	0xbe0a38ce	-0.13498232
2	0xbcceeced	-0.02525946
3	0xbd26cf93	-0.040725302
4	0x3e1df1f5	0.1542433
5	0x3ea095d4	0.3136431
6	0xbe1ad5b6	-0.15120587
7	0xbe511b70	-0.20420623
8	0xbcd1b2c7	-0.025597943
9	0x3e1db098	0.15399396
10	0xbdb9945b	-0.090615
11	0xbdfaa0f9	-0.12237734
12	0x3e28a9ea	0.16471067
13	0xbe8a9118	-0.27063823
14	0xbdc78aa5	-0.09743241
15	0x3def72e1	0.11691833
16	0xbd917b9b	-0.07103654
17	0xbe22ed25	-0.15910776
18	0x3db21543	0.086954616
19	0xbe1ac535	-0.15114291
20	0x3cfb6a5c	0.030690365
21	0xbe5f40c7	-0.21802054
22	0x3ce5bcbd	0.028044099
23	0x3e170dcf	0.14751361
24	0xbe8d2053	-0.27563724
25	0xbe78ea99	-0.24308242
26	0xbe2160a9	-0.15759529
27	0x3e57f2e5	0.2108875
28	0xbd221d58	-0.039578766
29	0xbe879865	-0.26483455
30	0x3e31e1da	0.17371312
31	0xbcfe3ab5	-0.031033853
32	0xbe374906	-0.1789895
33	0x3dd17d1f	0.10228943
34	0x3ea66bb5	0.3250405
35	0xbe57c8c0	-0.21072674
36	0xbdfc81cc	-0.12329444
37	0x3dd678d4	0.10472265
38	0xbdbd066d	-0.09229741
39	0xbdf9c253	-0.121952675
40	0xbe628754	-0.22121936
41	0x3e891838	0.2677629
42	0x3c5a0387	0.013306505
43	0xbe72a5e2	-0.23696092
44	0x3e4ee82b	0.20205753
45	0x3c11a376	0.00888907
46	0x3e75b4e1	0.23994781
47	0x3cc4649b	0.023973754
48	0xbde526f3	-0.111890696
49	0xbeb0f94f	-0.34565207
50	0x3e56dfc2	0.20983794
51	0x3d5c55d4	0.05379279
52	0xbe4ef9fd	-0.2021255
53	0x3e14c6f2	0.14529017
54	0x3e4a9218	0.19782293
55	0xbe90fab7	-0.2831628
56	0x3e1ca408	0.15296948
57	0xbdfecd1c	-0.12441465
58	0xbe506895	-0.20352395
59	0x3e6a3c76	0.22874627
60	0xbe38cb15	-0.1804622
61	0xbd414f37	-0.047194686
62	0x3d21c7f1	0.03949732
63	0x3e042b97	0.12907253

weight f4 [64, 4]
0	0x3e3dc5e9	0.18532528
1	0xbdcec16b	-0.10095485
2	0x3d96b31d	0.07358382
3	0xbdfa5234	-0.1222271
4	0xbe9193dd	-0.28433123
5	0xbe68fc3c	-0.2275247
6	0x3d56ebab	0.052470844
7	0xbdeddd57	-0.11614483
8	0x3da56624	0.080761224
9	0xbe347eac	-0.17626446
10	0xbdfc917d	-0.12332437
11	0xbe1ce006	-0.15319833
12	0x3da8380a	0.082138136
13	0x3e9bc0e7	0.3042061
14	0xbe417d3e	-0.18895432
15	0x3e3eae6a	0.18621221
16	0x3dc825b8	0.09772819
17	0x3e637d60	0.22215796
18	0x3dadd9ae	0.08488785
19	0x3c9bae21	0.01900393
20	0xbdf81939	-0.12114186
21	0x3e07e327	0.13270245
22	0x3b3c0961	0.0028692114
23	0x3e00037e	0.12501332
24	0xbe91cfa6	-0.28478736
25	0xbe2450f3	-0.16046505
26	0xbe833f83	-0.25634393
27	0x3e26bc99	0.16282882
28	0xbe7a03fb	-0.24415581
29	0xbde06c58	-0.10958165
30	0x3da323df	0.07965826
31	0xbee886ba	-0.45415288
32	0x3e209dc3	0.15685181
33	0x3d96a1a7	0.073550515
34	0xbeaa01c7	-0.3320448
35	0xbe48e2fb	-0.19617836
36	0x3d58ae7b	0.052900773
37	0xbe00401f	-0.1252446
38	0x3e4ff0bb	0.20306675
39	0x3d8a05e1	0.067394026
40	0xbcf10b06	-0.029424202
41	0xbd240dd8	-0.040052265
42	0xbdb57c7b	-0.088616334
43	0x3e9b476d	0.3032793
44	0xbe531c19	-0.20616187
45	0xbe3ab352	-0.18232468
46	0xbdc3c24b	-0.09558543
47	0x3d909bdb	0.07060977
48	0x3d954ddf	0.07290243
49	0xbd8a902f	-0.06765782
50	0xbe642a3f	-0.2228174
51	0x3dfe8aa3	0.124287866
52	0xbd7f1d8c	-0.062284037
53	0xbd8990f6	-0.06717102
54	0x3dba102e	0.09085117
55	0x3e4b2acf	0.19840549
56	0x3c6ee6bf	0.014581381
57	0x3e03b761	0.12862922
58	0x3dcfdafc	0.1014919
59	0x3e660956	0.22464499
60	0x3ddc60e8	0.10760671
61	0xbddd5fec	-0.10809311
62	0xbe92623a	-0.28590566
63	0xbd0198a0	-0.031639695
64	0xbdbf38f2	-0.09337033
65	0x3e4f5276	0.202463
66	0x3c4940d8	0.012283526
67	0xbe195d14	-0.14976913
68	0xbe193225	-0.14960535
69	0x3c15b93a	0.0091384
70	0xbd1fc1d4	-0.03900321
71	0x3cd59601	0.026072504
72	0xbd119fa8	-0.03555265
73	0xbddae922	-0.10688998
74	0x3de192f1	0.11014355
75	0x3c058dab	0.008151452
76	0xbdf2f028	-0.118622124
77	0xbda2e9e9	-0.07954771
78	0xbe2859c7	-0.16440497
79	0xbe65343a	-0.22383204
80	0x3e57edc0	0.21086788
81	0xbe8b7743	-0.27239427
82	0xbbda271b	-0.0066574938
83	0xbe0419f3	-0.12900524
84	0x3e5a0ae2	0.21293214
85	0xbddb067f	-0.106945984
86	0x3e128ba5	0.14311083
87	0x3e3b2465	0.18275602
88	0xbd761be5	-0.060085196
89	0xbdf4c6a1	-0.11951948
90	0xbd964951	-0.07338203
91	0xbd9a811b	-0.07544156
92	0xbcc52f7e	-0.024070498
93	0xbea0f5c2	-0.31437498
94	0x3e6a2e18	0.22869146
95	0x3d86b09a	0.06576653
96	0x3dfa5963	0.122240804
97	0xbe14ff24	-0.14550453
98	0x3eab5e75	0.33470502
99	0xbce33d85	-0.027739296
100	0xbdda023a	-0.10644956
101	0xbba022b3	-0.004886949
102	0x3e833ad1	0.2563081
103	0xbeb04caf	-0.34433505
104	0xbe272688	-0.16323292
105	0xbd97616e	-0.0739163
106	0xbd4abab6	-0.049494468
107	0x3ec4bb8e	0.38424343
108	0xbf089be7	-0.5336289
109	0x3dc1f208	0.09469992
110	0xbe43eb4a	-0.19132724
111	0xbc441741	-0.011968435
112	0xbd855cde	-0.06511854
113	0xbc283e7e	-0.010268806
114	0xbe68bb2a	-0.22727647
115	0xbe7e6227	-0.2484213
116	0xbe6fb9c1	-0.23410703
117	0x3e6c1316	0.23054156
118	0x3e4fa2b6	0.20276913
119	0x3e48d1b9	0.19611253
120	0x3ea3c76a	0.31988078
121	0xbe245f9c	-0.16052097
122	0xbe41582d	-0.18881293
123	0x3dd97663	0.106182836
124	0x3c651f1b	0.013984467
125	0x3d9c64b3	0.07636394
126	0x3d8c5739	0.06852574
127	0x3c1208db	0.008913244
128	0xbea413be	-0.32046312
129	0x3dd054cd	0.101724245
130	0xbe368d5f	-0.17827366
131	0x3ea1f57c	0.31632602
132	0xbe4230ab	-0.18963878
133	0xbd918ef8	-0.07107347
134	0x3ebb25f2	0.36552387
135	0xbd9a19c0	-0.07524443
136	0x3d30f022	0.04319776
137	0x3ede5ac5	0.43428627
138	0x3ea60455	0.3242518
139	0x3c42e22e	0.011894746
140	0x3da41bb5	0.08013097
141	0xbd8cc8b8	-0.068742216
142	0x3ec5c1c2	0.38624388
143	0xbc3eed93	-0.011653322
144	0x3dec7b51	0.11546958
145	0x3e9208fc	0.2852248
146	0xbe99b0e8	-0.3001778
147	0xbc11e25f	-0.008904069
148	0xbb703baf	-0.0036656668
149	0x3df94d09	0.121728964
150	0x3caf2990	0.021382123
151	0x3d26032b	0.040530365
152	0x3e082213	0.13294248
153	0xbd4a8636	-0.0494444
154	0xbdb73f58	-0.08947629
155	0x3de13c35	0.10997812
156	0xbeaa5bb5	-0.33273092
157	0x3ec392fc	0.38198078
158	0xbcbaee8c	-0.022818826
159	0xbe9cb1c6	-0.3060438
160	0x3d476c26	0.048687123
161	0x3e17b4b7	0.14815031
162	0xbd087dd0	-0.03332311
163	0x3d1df723	0.038565766
164	0xbd58ab68	-0.05289784
165	0xbdfb10f2	-0.122590914
166	0xbeaf8724	-0.34282792
167	0xbe977e5a	-0.29588586
168	0x3eb85473	0.3600193
169	0x3ec00681	0.37504962
170	0xbd954292	-0.07288088
171	0xbdfdc2ac	-0.12390646
172	0x3d0fc76f	0.035102304
173	0xbd9418b9	-0.07231278
174	0x3d5302b6	0.051516257
175	0x3e8dde45	0.2770864
176	0xbe9f8946	-0.3115942
177	0x3dc60fee	0.09671007
178	0x3e1270d2	0.1430085
179	0x3d930989	0.07179553
180	0xbbee2b21	-0.007268325
181	0x3c5149d2	0.012773948
182	0xbe1797e9	-0.14804043
183	0x3e43f189	0.19135107
184	0x3da0fd78	0.07860845
185	0x3d9a35a2	0.07529761
186	0x3c4d0351	0.012512998
187	0xbec6a32e	-0.3879637
188	0x3e3488d5	0.17630322
189	0xbe263296	-0.16230235
190	0x3dac8cd6	0.084253
191	0xbda19108	-0.07888991
192	0xba82c076	-0.0009975571
193	0xbebc96c4	-0.36833775
194	0xbe717f06	-0.23583612
195	0xbe7dc973	-0.24783878
196	0x3d503962	0.050835975
197	0x3e35bd77	0.17748056
198	0xbd5acd5d	-0.053418506
199	0x3b70ecef	0.0036762317
200	0x3e77bc87	0.24193011
201	0xbd18c298	-0.037294954
202	0x3d12ff90	0.035888255
203	0x3ddcc5ae	0.10779892
204	0xbdf5ba61	-0.119984396
205	0xbdcb558b	-0.099284254
206	0xbec6d81e	-0.3883676
207	0xba43e622	-0.0007472952
208	0xbc62ca96	-0.013842246
209	0x3e687bb4	0.22703439
210	0xbdde173c	-0.10844275
211	0x3e367f0e	0.17821905
212	0x3de41c71	0.11138237
213	0x3d85605d	0.065125205
214	0xbe163b36	-0.14671025
215	0x3c9873d7	0.018609924
216	0x3e530e80	0.20611
217	0x3e03f88f	0.12887786
218	0xbd3d3757	-0.046195354
219	0x3c9eb1ba	0.019371856
220	0xbd6ca87d	-0.05777787
221	0xbe9f7475	-0.31143537
222	0x3e16f24e	0.1474087
223	0xbd8ca2a7	-0.06866961
224	0x3daa4784	0.08314422
225	0x3e041a93	0.12900762
226	0x3db90b68	0.09035379
227	0xbdfeb827	-0.12437468
228	0x3e9f845b	0.31155667
229	0x3eb03811	0.34417775
230	0xbc804b0c	-0.015660785
231	0xbdc6208e	-0.09674178
232	0x3e64711a	0.2230877
233	0xbb776d24	-0.0037754262
234	0x3d98fd57	0.07470196
235	0xbd649052	-0.055801697
236	0xbd5a7638	-0.0533354
237	0xbd25f05e	-0.040512435
238	0xbe3fa38f	-0.18714736
239	0x3e615e40	0.2200861
240	0xbb9b6668	-0.0047424324
241	0x3e509587	0.2036954
242	0xbe003fdc	-0.1252436
243	0xbe41a33a	-0.18909922
244	0x3e5a6f6f	0.21331571
245	0xbd974184	-0.07385543
246	0xbd614cd1	-0.0550049
247	0x3e05c285	0.13062485
248	0x3e7fa6a1	0.24965908
249	0xbe902bed	-0.28158513
250	0xbe1bbfa5	-0.15209825
251	0x3e1d870f	0.15383552
252	0x3dce6700	0.100782394
253	0x3bf96d59	0.007611912
254	0xbd9456db	-0.07243129
255	0xbe6506a0	-0.22365808

bias f4 [64]
0	0xbbf570ee	-0.007490269
1	0x00000000	0.0
2	0x00000000	0.0
3	0x3c63f6d9	0.013913834
4	0xbc5d4eae	-0.013507528
5	0x3c832e93	0.01601342
6	0x00000000	0.0
7	0x00000000	0.0
8	0x3c8099fe	0.01569843
9	0xbbd21d01	-0.006412149
10	0xbbdebb6b	-0.0067972443
11	0x00000000	0.0
12	0xbc1ad100	-0.009449244
13	0x3c4d7d35	0.012542059
14	0x3ca1f8f0	0.019772023
15	0x00000000	0.0
16	0x3b344f99	0.0027513264
17	0x00000000	0.0
18	0x00000000	0.0
19	0x00000000	0.0
20	0x00000000	0.0
21	0xbc3f3827	-0.011671103
22	0x00000000	0.0
23	0x00000000	0.0
24	0xba71c5fe	-0.00092229235
25	0x3ce10d57	0.027472181
26	0xbbfc036d	-0.007690838
27	0x00000000	0.0
28	0x00000000	0.0
29	0x3c98b84d	0.018642569
30	0x3c9888c1	0.018619897
31	0x3c7ea585	0.015542393
32	0x3ca10f7d	0.019660706
33	0x3ca3d7e6	0.02000041
34	0x3c7ea0e6	0.015541291
35	0xbc18620f	-0.009300723
36	0x3c294533	0.01033144
37	0x3c721117	0.014774582
38	0xbc5ab0cb	-0.013347815
39	0xbc917842	-0.017757539
40	0xbc651c35	-0.013983776
41	0x00000000	0.0
42	0x3c17179b	0.009221937
43	0x3c24f786	0.01006878
44	0xbc0e7984	-0.008695964
45	0xbc0a8547	-0.008454627
46	0xbc2d72ce	-0.010586454
47	0x3c04c935	0.008104612
48	0x00000000	0.0
49	0x3c884c80	0.01663804
50	0x3c6f6820	0.014612228
51	0x00000000	0.0
52	0xbc17a51d	-0.009255675
53	0x3c9ae354	0.018907227
54	0xbc39e11c	-0.011345174
55	0x00000000	0.0
56	0x3c3ec008	0.0116424635
57	0x3c699dcd	0.014258814
58	0x3ca376cf	0.019954113
59	0x3d11801e	0.035522573
60	0x3ccee6cb	0.025256535
61	0xbc409b07	-0.011755711
62	0xbc35c162	-0.011093469
63	0xbc5b83c0	-0.013398111

weight f4 [64, 64]
0	0xbcfaf97d	-0.030636543
1	0xbbd824c9	-0.006596182
2	0x3eae8d51	0.3409219
3	0xbe310921	-0.17288639
4	0xbe8137e0	-0.25237942
5	0xbe14c4ed	-0.14528246
6	0x3d9883b8	0.07446998
7	0x3dacdc77	0.08440488
8	0x3d6b1dfd	0.057401646
9	0xbda01594	-0.07816616
10	0xbe0b1351	-0.13581587
11	0x3d74054c	0.059575364
12	0x3dd801df	0.10547232
13	0xbeb034b2	-0.34415203
14	0xbde32c3c	-0.110924214
15	0xbcde73fe	-0.027154919
16	0xbc5bde5f	-0.013419717
17	0x3e8017e9	0.25018242
18	0x3d41b7fe	0.04729461
19	0x3e6d556e	0.2317712
20	0xbd376443	-0.04477335
21	0x3e52c310	0.20582223
22	0x3e7d9ea5	0.2476755
23	0x3e341330	0.17585444
24	0xbc70d235	-0.014698555
25	0x3e19df00	0.15026474
26	0x3e35141c	0.17683452
27	0x3e8328de	0.25617117
28	0x3e89581c	0.26825035
29	0xbc1bd7b7	-0.00951188
30	0xbe929774	-0.28631175
31	0xbb94161d	-0.0045192377
32	0x3ec91492	0.39273506
33	0xbe6df063	-0.23236232
34	0x3e24e4c7	0.16102897
35	0xbe073f09	-0.1320764
36	0x3d4b57ff	0.049644466
37	0xbec0c4c1	-0.3765011
38	0xbe005153	-0.12531023
39	0x3e070524	0.13185555
40	0xbe0e03a7	-0.13868581
41	0x3dbdd845	0.09269766
42	0xbe55232e	-0.20814201
43	0xbd4d9e26	-0.05019965
44	0xbd3b4c83	-0.045727264
45	0xbb674092	-0.003528629
46	0x3e3862f5	0.18006499
47	0x3da70789	0.08155734
48	0xbed4e23b	-0.4157885
49	0x3e2981ef	0.16553472
50	0x3dc00a1d	0.09376929
51	0xbd32e0e0	-0.04367149
52	0xbdeafb0e	-0.11473666
53	0xbea3fc74	-0.32028544
54	0x3d9199b4	0.07109395
55	0xbe527d77	-0.20555674
56	0x3e560c0c	0.20903033
57	0x3de66428	0.11249572
58	0xbe7555c5	-0.239585
59	0x3ce43fdb	0.02786248
60	0xbc424fe7	-0.0118598705
61	0xbdf64fe6	-0.12026958
62	0xbd584cf1	-0.052807752
63	0xbd5129dc	-0.05106531
64	0xbd74af7b	-0.059737664
65	0x3d9ee39c	0.07758257
66	0x3e3a96fd	0.1822166
67	0x3e3db1f8	0.18524921
68	0x3d36b674	0.044607595
69	0x3e41cc80	0.18925667
70	0x3e51ed05	0.20500572
71	0xbe845e9a	-0.25853425
72	0x3d2db3d8	0.04240784
73	0xbe133c92	-0.14378574
74	0x3d9df5e7	0.07712918
75	0x3dacca74	0.08437052
76	0xbd5dc82f	-0.054145988
77	0x3e5e5e4b	0.21715657
78	0x3e3dd705	0.18539055
79	0x3e55a075	0.20861991
80	0x3c822a9f	0.015889464
81	0xbd74770f	-0.059683856
82	0xbd430fd0	-0.0476225
83	0xbbdeac2b	-0.0067954264
84	0xbd6bfaba	-0.05761216
85	0x3ebf369b	0.37346348
86	0x3ed56edc	0.41686141
87	0xbdb7f952	-0.08983101
88	0x3e4da338	0.20081794
89	0xbb1f8eaa	-0.002434651
90	0xbe8b7471	-0.27237275
91	0x3ced5e37	0.02897559
92	0xbe84f794	-0.25970137
93	0xbe66c67d	-0.22536655
94	0xbe48a3e0	-0.19593763
95	0x3e2e4ae0	0.1702075
96	0x3c764d1d	0.015033034
97	0x3e196226	0.14978847
98	0x3ea0b657	0.31389114
99	0xbcfed298	-0.031106278
100	0x3df7f6fb	0.12107655
101	0x3e00a569	0.12563099
102	0x3e2e274a	0.17007175
103	0x3df75f03	0.12078669
104	0xbe8f52a8	-0.2799275
105	0xbd5b5978	-0.05355212
106	0x3dd0142d	0.10160098
107	0x3e2f5c33	0.17125015
108	0x3da9c539	0.0828957
109	0x3cb55c8d	0.022138858
110	0xbdde7d32	-0.10863723
111	0xbe3e649e	-0.1859307
112	0xbdf1f676	-0.11814587
113	0x3eb23194	0.3480345
114	0x3d83eb4b	0.06441363
115	0x3e270d8d	0.16313763
116	0x3e577613	0.21041135
117	0xbd0a77c5	-0.033805627
118	0x3a6deaf2	0.0009075842
119	0x3e05c09e	0.13061759
120	0x3c0abd2e	0.0084679555
121	0x3e63c6c0	0.22243786
122	0x3d4be818	0.04978189
123	0x3e539032	0.20660475
124	0x3f0dbe49	0.5536848
125	0xbdb82990	-0.089923024
126	0x3dbec499	0.09314842
127	0x3e78b864	0.2428909
128	0xbed12e35	-0.40855566
129	0x3e1765d6	0.14784941
130	0x3e0e8a6c	0.13919991
131	0x3dbb34d8	0.091409385
132	0x3e36265b	0.17788069
133	0xbd5e9d37	-0.05434915
134	0xbd7f48d2	-0.062325306
135	0xbe953b57	-0.29146835
136	0x3d547720	0.05187142
137	0xbdc1ab48	-0.094564974
138	0x3e617d54	0.22020465
139	0x3c598fdf	0.01327893
140	0xbd6f1e7b	-0.058378678
141	0xbe185228	-0.1487509
142	0xbce6bbbf	-0.028165696
143	0x3e02e9aa	0.12784448
144	0xbe9d2d16	-0.3069846
145	0xbe043652	-0.12911347
146	0x3dd68bba	0.104758695
147	0x3dbc4918	0.09193629
148	0x3e392ec1	0.18084241
149	0xbe8e8955	-0.2783915
150	0xbe2b61b2	-0.16736487
151	0xba520127	-0.0008011036
152	0x3c19dc04	0.009390835
153	0xbd68031d	-0.056643594
154	0x3e4a746a	0.19770971
155	0xbdf3ab1f	-0.11897873
156	0x3dc828b1	0.09773386
157	0xbc178789	-0.009248623
158	0xbdbb6f07	-0.09152036
159	0xbe3f9d5f	-0.18712376
160	0xbe2080aa	-0.15674081
161	0x3d80c2f5	0.06287185
162	0x3dbf5d47	0.09343963
163	0x3e32e184	0.1746884
164	0xbe0eb4ca	-0.13936153
165	0xbea82a35	-0.328447
166	0x3d9477d5	0.07249419
167	0xbe7336cf	-0.23751377
168	0xbde55d99	-0.11199493
169	0x3dd2dbeb	0.10295852
170	0x3cd80700	0.026370525
171	0x3d6a281b	0.057167154
172	0x3d636527	0.05551639
173	0xbc14cbed	-0.009081823
174	0xbdd20409	-0.10254676
175	0xbe9d7521	-0.30753425
176	0xbed1bf48	-0.4096625
177	0xbed8a7ef	-0.42315623
178	0x3db5895a	0.08864088
179	0x3def86b2	0.11695613
180	0x3ecc978e	0.39959377
181	0xbbc0b323	-0.0058807298
182	0x3d871c1d	0.06597159
183	0x3e4d36d7	0.20040451
184	0x3dd1feb4	0.10253659
185	0x3e0aebdb	0.13566534
186	0xbdeea616	-0.11652772
187	0x3e8216f0	0.25408125
188	0x3cf4225e	0.029801544
189	0x3dcfd73e	0.10148476
190	0x3cf63ec3	0.030059224
191	0xbe5a0e6d	-0.21294565
192	0xbc87f211	-0.016594918
193	0xbe8afd4b	-0.27146372
194	0x3e4f43ab	0.20240657
195	0xbc59f7b6	-0.013303688
196	0x3cdf9615	0.027293244
197	0xbe3d1e7a	-0.18468657
198	0xbd1c264b	-0.038122457
199	0xbe56f2d0	-0.20991063
200	0xbe40a8ee	-0.18814442
201	0x3eba91a9	0.36439255
202	0xbec86926	-0.39142722
203	0x3da9c495	0.08289448
204	0x3cf1f11d	0.029533917
205	0xbd8245c0	-0.0636096
206	0xbb5ed3c7	-0.003400074
207	0xbc27f0a5	-0.010250245
208	0x3dc65a7b	0.096852265
209	0xbc6c9ee7	-0.014442182
210	0xbd1010a4	-0.03517212
211	0x3ec4a5a2	0.38407618
212	0x3ee37000	0.44421387
213	0xbe32a13a	-0.17444316
214	0x3e60f538	0.21968544
215	0xbc50e40b	-0.012749682
216	0x3e134856	0.14383063
217	0x3daceb49	0.084433146
218	0x3c28cd8d	0.010302913
219	0x3dc0b3b4	0.09409276
220	0xbe30f9d8	-0.17282808
221	0xbd5e136e	-0.05421775
222	0xbd16cd49	-0.03681687
223	0xbde04d83	-0.10952284
224	0xbcfb6e2c	-0.030692182
225	0xbe8048c9	-0.2505553
226	0x3daf62b9	0.08563752
227	0x3d825742	0.06364299
228	0x3df7768f	0.1208316
229	0x3dc40d09	0.09572799
230	0x3e6c5e56	0.23082861
231	0xbe9c3ba7	-0.3051426
232	0x3e3c04cf	0.1836121
233	0xbc1fa35e	-0.00974354
234	0xbdf77098	-0.120820224
235	0xbed2b259	-0.41151693
236	0x3e54da4a	0.20786396
237	0x3d023caa	0.031796135
238	0xbe7a0152	-0.24414566
239	0x3dd9a466	0.1062706
240	0x3df6b7c8	0.12046772
241	0xbdeb0c7f	-0.11476993
242	0x3e421d37	0.18956457
243	0xbdca5c47	-0.09880882
244	0x3da40bfb	0.080100976
245	0x3e38f6bb	0.1806287
246	0x3ebd28a4	0.3694507
247	0xbd01f0ef	-0.031723913
248	0xbe387912	-0.18014935
249	0x3c504550	0.012711838
250	0x3d3366fb	0.04379938
251	0xbdf24fb4	-0.118316084
252	0x3e3fa227	0.187142
253	0xbd71b823	-0.059013497
254	0xbe3815af	-0.17977022
255	0x3dbd590a	0.092454985
